gradient-inversion-generative-image-prior/inversefed/genmodels/stylegan2_mnist/test_output/checkpoint/GAN_DIS_2000.pth (torch, 321867 bytes, 29 tensors)

from_rgb.0.bias f4 [8]
00000000: e947 823f e4b4 7d3f 1b1d 713f 82f3 803f
00000010: 7612 9f3f 27c2 533f d41c 863f 9d72 823f
1.0178195 0.9910414 0.94185036 1.0074313 1.2427509 0.8271813 1.0477548 1.0191227

from_rgb.0.weight.weight f4 [8, 1, 1, 1]
00000000: b445 fa3e 40c4 d4bd 2fbe b1be 653a e3bf
00000010: 6838 9f3f 3bb2 1b40 2a40 f33e ab0e 1c3f
0.48881304 -0.10388994 -0.3471541 -1.7752196 1.2439089 2.4327533 0.4750989 0.6095988

blocks.0.residual.0.smooth.kernel f4 [1, 1, 3, 3]
00000000: 0000 803d 0000 003e 0000 803d 0000 003e
00000010: 0000 803e 0000 003e 0000 803d 0000 003e
00000020: 0000 803d
0.0625 0.125 0.0625 0.125 0.25 0.125 0.0625 0.125
0.0625

blocks.0.residual.1.bias f4 [16]
00000000: 6c94 8e3f a124 853f 67e1 603f bd12 863f
00000010: 2445 573f db1d 823f 0c89 723f a60c 903f
00000020: 13d2 743f e8cc 893f d098 7a3f cc3b 723f
00000030: b4c0 773f 1bd5 833f 0f9e 813f 4f34 733f
1.1139045 1.0401803 0.87843937 1.0474468 0.84089875 1.0165361 0.94740367 1.125386
0.9563305 1.0765657 0.97889423 0.9462249 0.96778417 1.029941 1.0126361 0.9500169

blocks.0.residual.1.weight.weight f4 [16, 8, 1, 1]
00000000: 789e 3cbe 91cf 3f3d f660 aabf 879a 30bf
00000010: a267 0b40 da66 00be 5f13 5c3f f362 32be
00000020: 11d1 86be b8d7 aa3f 5e20 443a 9af4 81bf
00000030: 3b49 283f e179 b0be 5fee 463f a474 3c3e
00000040: 9078 a73f 2817 ddbf 02b3 493f cc8e d7be
00000050: 6ac9 d33e c961 823f 12f7 133f 8c8e 6fbf
00000060: fc57 a0bf 9b5c a33e c765 ff3e 6ee9 dabf
00000070: 19e1 983e 477f d73f 6d98 f63e c84a 1dbf
00000080: 6419 e6bd 517e dc3e f100 b73e 5ffa 0bc0
00000090: d2ac 1f40 f73d 0a3f 5467 a73e 725f 90bf
000000a0: 43c0 cd3f 4c6f debf 67db e83f cbda c53f
000000b0: 50ce 063c 40cc c1bd 3197 0c3f 2757 c53e
000000c0: 9fe9 83bf a833 82be 59df 87bd c83c 0c40
000000d0: afaf 393f b361 3dbf f4dd fa3e d292 febd
000000e0: 3ccb 673f 6172 bbbf 35c0 863c 5e50 cfbf
000000f0: 9323 8ebc 7f30 0bbf bb48 953f 9a55 babe
00000100: 54b0 093f 5411 ad3f dbdc b5be e33c 843f
00000110: 2ecf b73f 6277 2b3f 9560 95bf f5d4 5f3f
00000120: 3803 d13e 6f6f 01bf e320 c33e d79e 063f
00000130: 2ef9 263e 573d 043e 1eb2 19be 81e1 a23f
00000140: ea89 f2be bdd8 b33f 6b55 263f 59df ac3f
00000150: 3445 83bf 23ce 80bf 6715 f9bf 9834 2b3f
00000160: 61cb 1ebf 3d23 f7be 9885 6abf 0e0e 533f
00000170: c50c 993f a792 b2be e3be 893f 2921 e83d
00000180: 94d0 47be d426 4b3f d377 74bf bb6f bc3f
00000190: 0392 c6bf 6c15 093f 135a c83e c6cb e6bf
000001a0: dd8e e9bf a337 463f 3aa0 b53f 024f 9dbf
000001b0: b159 5b3f 9e21 663f 04d0 b93f ede4 193f
000001c0: a921 9c3f 8089 0fc0 985f 23bf c607 febf
000001d0: c852 8dbf e1b2 c7bf a01a be3f 9ae2 4a3f
000001e0: 5d53 ff3f 09ce b7bf 051c c33e b079 f3be
000001f0: c3b3 d7bd def6 33c0 7648 823f 9b43 993e
-0.18419826 0.04682881 -1.331084 -0.6898579 2.1782002 -0.12539235 0.8596706 -0.17420559
-0.2633138 1.3347082 0.000748163 -1.0152771 0.6573674 -0.34467986 0.77707475 0.1840387
1.3083668 -1.7272692 0.7878877 -0.42101133 0.41364604 1.0186092 0.57798874 -0.93576884
-1.2526851 0.3190659 0.49882337 -1.7102487 0.29859236 1.6835717 0.48163167 -0.6144223
-0.112353116 0.43065122 0.35742906 -2.1871564 2.494923 0.540008 0.3269602 -1.1279128
1.6074299 -1.7377715 1.8191956 1.5457395 0.0082279 -0.09462786 0.549182 0.38543054
-1.030567 -0.25430036 -0.06634397 2.1912098 0.72533697 -0.739772 0.48997462 -0.124303475
0.90544486 -1.4644281 0.016449073 -1.6196401 -0.017350947 -0.54370874 1.166282 -0.36393434
0.5378468 1.3520913 -0.35520062 1.0331081 1.4360101 0.6697904 -1.16701 0.8743432
0.40822768 -0.5056066 0.38111028 0.5258612 0.16305992 0.12914024 -0.15009353 1.2725068
-0.47370845 1.4050518 0.6497409 1.350566 -1.0255494 -1.0062908 -1.9459656 0.66877127
-0.6202908 -0.48269072 -0.916101 0.8244332 1.1957022 -0.34877512 1.0761379 0.1133445
-0.1951316 0.7935612 -0.9549534 1.4721597 -1.5513309 0.5354831 0.3913122 -1.8030937
-1.8246723 0.77428645 1.4189522 -1.2289736 0.85683733 0.89895046 1.4516606 0.6011494
1.2197772 -2.2427673 -0.6381774 -1.9846122 -1.1040888 -1.5601465 1.4851875 0.79252017
1.9947315 -1.4359752 0.38107315 -0.47553778 -0.10532334 -2.8119426 1.0178363 0.2993439

blocks.0.block.0.bias f4 [8]
00000000: 005a 7c3f efd2 823f 2398 893f 8b99 813f
00000010: 2342 8c3f d7e2 833f 64c1 733f 7c2d 893f
0.9857483 1.0220622 1.0749553 1.0124983 1.0957683 1.0303601 0.95216966 1.0717006

blocks.0.block.0.weight.weight f4 [8, 8, 3, 3]
00000000: 85fc 97bb 6b27 183f 5354 85bf 95e6 7e3f
00000010: 8f18 cd3e c1f7 e93f 68e1 43bf aa95 22be
00000020: 7001 1abf 3e2a c0bf 19d5 6dbf da2e acbe
00000030: 85f5 94bf d707 e3bd 39a3 2f3f 31f9 b6be
00000040: 0df0 88bf fc57 223f 84f5 d2bf d14a bcbd
00000050: 190a 103e 4d4e a63d d756 1940 37ac 193f
00000060: dffe 5bbf 3673 dc3d dc28 42bf 6a4a 47be
00000070: 09a2 87bf c7c7 5ebd db50 823f 2d46 dfbf
00000080: a914 87be d0ec b03f 829c 0bbf 03b4 90be
00000090: 21d3 633f 4e26 883d 8239 ad3f 47f5 3f3f
000000a0: e60d 083f 2251 d93d b8e6 5c3f 80ee 463e
000000b0: cdc2 ca3f 468e e83d e443 f23e ecc8 13bf
000000c0: 37c8 053f 5172 66bf f777 43bf 6482 5abf
000000d0: a0d4 cdbe 6732 3dbf 9f8b 173f 71a4 babf
000000e0: bdb1 bc3f a398 843f ce54 3a3f 5f85 343f
000000f0: 43f1 0f3f bb30 1ebf b333 b63e 1c87 66bf
00000100: f03f 23bf 21f9 b73e 77e6 f53f c295 4240
00000110: 884d 023f 6dec 30bf 7a8a c6be c647 1fbf
00000120: da91 d7be cb98 6c3f 08ff 683e 3b87 023f
00000130: f352 8abf 0c5f 02bf 9e5d 7b3f acc7 6b3f
00000140: c0c1 833e 00b1 773f 55c5 523d 4dc7 9fbf
00000150: c566 1a3f 2acd a73f 8d25 803f a70f 383f
00000160: 7277 5abf 461b 813e c323 91bf dc78 36bf
00000170: 8361 a3bf 9082 84bf c9f0 bdbd 1cfc c3bd
00000180: bb05 a2bf 0858 c83c 2e69 c53f 550a 8abe
00000190: c752 0cc0 365d 84bd a862 e6bf 1e90 3bbf
000001a0: 18ab 693f 19ea ea3d f4c2 0e3e 89f2 6d3e
000001b0: 63ce cb3f 11cb cbbe 48b8 38bf c0c1 51bf
000001c0: a206 2bbf 75eb c23f 2b9b adbf 0c0d 10bf
000001d0: 84e0 e9bf bdd9 9e3e 9710 453f 7b85 a4bf
000001e0: b337 d23d 5499 51be f48b 34bf 2455 e43d
000001f0: 3983 933f 4f98 263e bfae debe 6f4e 6c3e
00000200: f57b 0b40 8936 a2bf d0ec 63be cf89 5b3e
00000210: 7402 a9be 0fe1 0e40 dc60 02c0 0ac8 10bf
00000220: 62ab 8c3f 40d3 743f 561f c5bf df94 21bf
00000230: 8abc 8c3f c2e6 8c3d f9ed a1bf 4ad4 363f
00000240: 7d12 b23f c71a 21bf 2c1d 8bbf cabe 9fbf
00000250: f89c 27bf a26e 8ebc 96f6 6ebf 6c3d 013f
00000260: f427 803f efa9 b3bf 6413 1ec0 8903 5bbf
00000270: ef19 9ebe b79e bebe e9af a63f 644b ddbe
00000280: 151f 633f db3d 7cbe 42b8 ae3f 370c 343f
00000290: e3aa 99be 7b7d e4bf 9387 0e3f 926b e73f
000002a0: 98e2 f3bf 0851 0bc0 33fe debf daf3 02bd
000002b0: 1343 53bf b65e 55bf 09be 853f 90c6 0e40
000002c0: 746f 6fbf 2ada 3abe ae74 9ebf fad1 7cbf
000002d0: 40f4 cbbe e7c4 8fbf f3bc 903f 6acf 04bf
000002e0: 4366 a03f bebb f93e e422 563e 7cc2 1440
000002f0: 2430 a23d 2e00 743e 8124 f43d 5d0e 0c3f
00000300: 7e65 38bf 34c4 3b3f 90ac 6c3d 9ca2 1cbe
00000310: 6e94 553f e5b2 673f 2411 9cbf aea6 b13d
00000320: 5267 f63f 7593 073e a35c 863f 7d16 bdbd
00000330: b631 ab3f ea01 933f 724d 70be c5f1 aebe
00000340: cacd 82bf 0790 fdbf 70ae cabd d7dd 9bbf
00000350: 0a5d d6bf d093 42bf c4ef 3a3e 49bf fa3e
00000360: 3ba8 1540 99d6 903f 4b10 913d aef5 01bf
00000370: d084 dabe 1120 f43e 7af6 63bd f7e8 c13d
00000380: 00d8 de3f 2141 8f3c a1bd 973d 9d62 51bf
00000390: b5ff 7abe 42c6 0a3f d671 dfbd d910 7abe
000003a0: 34f1 33bd 7344 84be a6b4 8bbf 2cb3 bd3f
000003b0: d943 90bf a1f7 393e 5273 f5bf 9437 a83f
000003c0: aa7e 4d3f 4c98 f63d 9007 f2bf c20a 603f
000003d0: 1b84 75bf 3e46 fb3e 53bf e33f 677c 89bf
000003e0: ee1e 873f 803d e63e edd1 b73e 5388 6b3f
000003f0: 45b8 973f 397a 383f a1f5 aebe 07c9 653f
-0.004638257 0.5943515 -1.0416359 0.9957059 0.400578 1.8278733 -0.7651582 -0.15877405
-0.60158443 -1.5012891 -0.92903286 -0.33629495 -1.1637427 -0.1108548 0.68608433 -0.35736993
-1.0698258 0.63415504 -1.6481175 -0.091939576 0.14066352 0.081204034 2.3959253 0.60028404
-0.8593578 0.10764162 -0.75843596 -0.1946198 -1.0596324 -0.05438974 1.0180925 -1.7443291
-0.2638295 1.382227 -0.54535687 -0.28262338 0.8899403 0.06647931 1.3533175 0.7498364
0.5314621 0.10611178 0.8628955 0.19426918 1.5840698 0.113552615 0.4731742 -0.5772846
0.5225863 -0.90018183 -0.76354927 -0.8535521 -0.40201283 -0.7390503 0.5919742 -1.4581434
1.4741741 1.0359081 0.7278565 0.7051601 0.5622751 -0.61793107 0.35586318 -0.9004991
-0.63769436 0.35932258 1.9210957 3.0403905 0.50899553 -0.6911076 -0.38777524 -0.6221889
-0.42103463 0.92420644 0.22753537 0.50987595 -1.0806564 -0.5092628 0.98189723 0.9210155
0.25733757 0.96754456 0.05145772 -1.2482697 0.60313064 1.3109486 1.001146 0.71898884
-0.8533851 0.2521612 -1.1339039 -0.71278167 -1.2764133 -1.0352345 -0.09274442 -0.095695704
-1.2657999 0.02445604 1.5422723 -0.26961008 -2.1925523 -0.06463091 -1.7998857 -0.7326678
0.91276693 0.11470432 0.13941556 0.23237051 1.5922359 -0.39803365 -0.7215619 -0.81936264
-0.66806996 1.5228106 -1.3562979 -0.5626991 -1.8271642 0.31025496 0.7697844 -1.2853235
0.1026453 -0.20468646 -0.7052605 0.11149052 1.1524421 0.16269039 -0.43492696 0.23076795
2.1794407 -1.2672893 -0.22258306 0.21439289 -0.33009684 2.2324865 -2.0371618 -0.56555235
1.0989802 0.9563484 -1.5400188 -0.63117784 1.0995038 0.06879951 -1.2650748 0.7141768
1.3911892 -0.62931484 -1.0868278 -1.2480099 -0.6547389 -0.017386738 -0.9334501 0.5048435
1.0012193 -1.4036235 -2.4699335 -0.8555227 -0.3087916 -0.37230465 1.3022434 -0.4322158
0.887193 -0.24632971 1.3649981 0.7033114 -0.3001319 -1.7850794 0.5567562 1.8079703
-1.9053526 -2.1768208 -1.7421325 -0.031970836 -0.8252422 -0.8334764 1.0448619 2.2308693
-0.9352944 -0.18247285 -1.2379358 -0.987579 -0.39834785 -1.1231965 1.1307663 -0.5187899
1.2531208 0.48776048 0.20911747 2.3243704 0.07919338 0.23828194 0.11921025 0.54709417
-0.72029865 0.7334626 0.057781756 -0.15296406 0.8342961 0.90507346 -1.2192731 0.0867437
1.9250281 0.13239844 1.049702 -0.09232805 1.3374546 1.1484959 -0.23467043 -0.3416883
-1.0219052 -1.9809579 -0.098965526 -1.2177075 -1.6747143 -0.76006794 0.18255526 0.48974064
2.338393 1.131549 0.07083186 -0.507655 -0.42679453 0.47680715 -0.05565498 0.09468263
1.7409668 0.01748711 0.07409216 -0.81791097 -0.24511607 0.5420877 -0.10910384 -0.2442049
-0.0439312 -0.25833473 -1.0914505 1.4820304 -1.1270705 0.18160869 -1.9175818 1.3141961
0.802714 0.12040767 -1.8908558 0.87516415 -0.959047 0.49077028 1.7792763 -1.074109
1.0556314 0.44968796 0.35902348 0.9200489 1.185311 0.72061497 -0.34171775 0.8975987

blocks.0.block.2.bias f4 [16]
00000000: b3b3 823f c938 7b3f a054 813f f845 863f
00000010: faac 913f 97b3 813f ffce 6a3f 8fc0 7b3f
00000020: 8b61 803f 7bc6 793f 1ad2 7a3f 663c 723f
00000030: 79dc 663f 3358 833f b7dd 823f 47e3 8e3f
1.021109 0.9813352 1.010395 1.0490103 1.1380913 1.0132931 0.917221 0.98340696
1.0029768 0.9756848 0.9797684 0.9462341 0.90180165 1.0261291 1.0223912 1.116311

blocks.0.block.2.weight.weight f4 [16, 8, 3, 3]
00000000: 8834 1cc0 74af 133f 7060 afbe d13e dfbf
00000010: 7af6 093f af52 f93e bd46 e83d d97a afbe
00000020: eeac 8a3f 6161 0dbf b014 1e3f e4a9 a03d
00000030: 2e0a e13e 9f29 f93f d30c 723f 0e9f 103f
00000040: f659 c63f 5122 febd cc75 9a3f 0974 e7be
00000050: 4f70 2c3f 2554 d5be c38e 90bf df7a c53e
00000060: a4ce 6c3f 18cf 83be 8146 2dbf 2f03 e03c
00000070: 2b77 d13d 1c78 c1be e81c 12c0 dc5c 06bf
00000080: 8661 9f3e 3d5e e5be 789f 773f 2494 4c3f
00000090: a965 99be 5d94 8b3f 463a 22bf cdc6 a3bf
000000a0: 7089 273f 0169 97bf 6bda 8c3f 7ca6 36bf
000000b0: 0c53 803e 4bdd e33d f50b 57bf a512 b13e
000000c0: 138f 713f 7b07 903e fdd0 b8bd 62b6 603e
000000d0: a487 77bf da20 283d c667 2dbf f50a aabe
000000e0: 5edc 3ebe 07ed f0bd 07d4 993f 1d7b 8dbe
000000f0: b8ee 763f 750a 08be 5796 303f 583e 9e3f
00000100: 3a30 44bf d368 ec3e 8c34 24bf b295 553f
00000110: 46d7 babf 3d5b 5cbf 29ab b5bf 219d e73e
00000120: cd9d 4fbf 23f4 d6bd 9465 c5bf 3cc2 e6be
00000130: cb22 af3f 81fb 873e 40cc 4c3e 7ad5 c5be
00000140: c315 3fbf cb0a 173d 71f2 9abf fdad ecbe
00000150: a242 89bf d0f7 833f c38f 8dbe c781 cfbe
00000160: 15a0 07be 9e66 b2be a39f 8bbd 1df5 283f
00000170: d6b8 763f 3d1a c8bf 58e0 bcbe 538c 0f3f
00000180: 7519 e23e 849a 22be 527e e6be ebb0 7f3f
00000190: 91f9 48bf 5987 d23e 026f d2bf 5ae1 04c0
000001a0: 5981 8f3f 5803 bebf 9ba6 213f 1dd5 733f
000001b0: 1e49 53be bfb0 743f 1da6 0ac0 4e44 81bd
000001c0: 8fe8 5a3f 585c 85bf e63d 32bf 942d 69bf
000001d0: 9fe0 64bf 059e 97bf 5bd9 6dbe 83fc a13f
000001e0: 41bf d8bf f994 f73e e4f0 b6bf 598a 86be
000001f0: 90cd de3f 65b6 ab3e 3cae 83be 58b2 d73f
00000200: de52 073e e912 9c3e c319 64be b990 36bf
00000210: 4ba9 7fbe 88de 0dbe d861 023f 392f c7be
00000220: b58c a93e 4d0d 1cbf e575 7d3e 800f e6bf
00000230: ab70 d33d 422d 9a3f a5e4 283f 5434 ec3e
00000240: e270 563d 4c48 f43e f60e cb3e 479b 2cbf
00000250: ca79 ba3d 3924 a03f 997d f4bf 45f4 833f
00000260: 37e2 55be b6b4 a53f 70b1 c23f b390 41bf
00000270: 0a68 ae3e 82b6 0d3d 65fb a33f 0e19 963f
00000280: a5d3 c43f 1371 9b3f 42f7 073e 5b49 81bf
00000290: adf9 a5be 2d72 bbbe b087 113f 1d99 12c0
000002a0: a99a 04c0 9d78 f4bf e48f 67bf feb9 18be
000002b0: d5fa 4abe 288d e4be 9afa db3f 16cf 5e3d
000002c0: a9c0 26bd 48a4 303f db03 f0bf 45b1 0c3f
000002d0: 02f6 273e e7a5 b33e 23e3 4bbf 3c9e 10bf
000002e0: 3de9 873d b300 5fbe 5e6b f0be 7a3c 0dbf
000002f0: e8c6 babf 7f2d 393f b468 83bf 49f6 1140
00000300: 749f 1f40 8f47 4b3e ec3f 9abf 25cd 8a3f
00000310: 7f81 ffbe ea7f 98be ea5f 9c3c d022 223e
00000320: 9eb1 99bf dda0 04bf b3d0 b33e be3e b9be
00000330: 0e01 3a3e 780f dfbf e29e 98be f5ce 8cbe
00000340: 7dc0 693f b903 4f3f 2aaf 8c3f 5811 ad3f
00000350: 71e8 9abe df68 0e40 8c1c 54bf e347 f83d
00000360: 71e5 983f a548 133f ca1a 38bf 255d 1a40
00000370: 0f9f 4fbe fdea 7abe 955d d53d a7e6 c6be
00000380: f012 193f bd40 4d3f bc76 963f 4dc1 ae3f
00000390: 0b76 f73f fa19 2f3f 1b16 3440 fd9f 98bf
000003a0: 7d15 0740 ccd5 113f 0ec9 61bf 6d5a 16bf
000003b0: f393 51be 8429 093f 211b 17c0 c979 7a3f
000003c0: 20a5 b23d 66d8 543f 5358 0e3f 6587 e73e
000003d0: 02cc f9bd db92 9ebf 91ef 0340 d985 1a3f
000003e0: fcc7 883f 63d0 a8be 090d 043f e090 d73e
000003f0: 3d33 32be fc66 11be 4d64 953f c095 413e
-2.4407063 0.57689595 -0.34253263 -1.7441045 0.5389172 0.48695895 0.11341617 -0.34273413
1.0834024 -0.55226713 0.61750317 0.07844904 0.4395308 1.9465827 0.9455082 0.564927
1.5496204 -0.12408889 1.2067199 -0.45205715 0.6735887 -0.4166576 -1.1293567 0.38570306
0.9250281 -0.25743937 -0.67685705 0.027345268 0.102278076 -0.3778695 -2.2830143 -0.5248544
0.31129092 -0.4479846 0.96727705 0.79913545 -0.29960373 1.0904652 -0.6337017 -1.2795044
0.6544409 -1.182892 1.1004156 -0.71347785 0.2506336 0.11126193 -0.8400262 0.34584537
0.9435894 0.28130707 -0.09024236 0.21944574 -0.96691346 0.041046955 -0.6773647 -0.33211485
-0.18638751 -0.117639594 1.2017831 -0.2763299 0.96458006 -0.13285239 0.689794 1.2362776
-0.7663609 0.46173725 -0.6414268 0.8343154 -1.4596946 -0.8607672 -1.4192859 0.45237067
-0.8110016 -0.10495784 -1.5421624 -0.45070064 1.3682493 0.2655907 0.1999979 -0.38639432
-0.7464258 0.036875527 -1.2105237 -0.46226493 -1.072346 1.0310001 -0.27648744 -0.405287
-0.1324466 -0.34843916 -0.06817558 0.65999013 0.9637579 -1.5633007 -0.3688991 0.5607349
0.44160047 -0.15879256 -0.4501825 0.9987933 -0.7850581 0.41118887 -1.6440127 -2.0762544
1.1211349 -1.484477 0.63144845 0.9524706 -0.2063336 0.95582193 -2.1663888 -0.06311856
0.85511106 -1.0418806 -0.696257 -0.9108517 -0.89405245 -1.1845099 -0.23227446 1.2655185
-1.6933366 0.48355845 -1.4292264 -0.26277426 1.7406483 0.33537593 -0.25718868 1.6851301
0.13215205 0.30483177 -0.22275452 -0.7131458 -0.24966924 -0.1385442 0.5093055 -0.38903216
0.33115163 -0.60957795 0.24752004 -1.797348 0.10324224 1.2045062 0.65973884 0.46133673
0.052353747 0.47711408 0.39659852 -0.67424434 0.09105261 1.2511054 -1.9100829 1.030892
-0.20887075 1.2945774 1.52104 -0.7561142 0.3406375 0.03459788 1.2811095 1.1726396
1.5377089 1.2143883 0.13277915 -1.0100511 -0.3241705 -0.36610547 0.5684767 -2.2905953
-2.0719397 -1.9099308 -0.90453935 -0.149147 -0.19822247 -0.44638944 1.7185853 0.05439671
-0.04071108 0.69000673 -1.8751177 0.5495799 0.16402438 0.3508751 -0.7964346 -0.56491446
0.066362835 -0.2177761 -0.46956915 -0.55170405 -1.4591951 0.72335047 -1.0266328 2.280657
2.4941072 0.19851516 -1.2050757 1.0843855 -0.49903485 -0.2978509 0.019088704 0.15833592
-1.200733 -0.5180796 0.35120162 -0.3618068 0.18164465 -1.7426596 -0.29808718 -0.27501646
0.9130934 0.80865055 1.0990956 1.3520918 -0.30255464 2.2251508 -0.8285606 0.12123086
1.194502 0.5753272 -0.71915877 2.411935 -0.2027552 -0.24503703 0.1041824 -0.3884785
0.5979452 0.8017691 1.1754985 1.3652741 1.9332899 0.6839901 2.8138492 -1.1923825
2.1106865 0.56966853 -0.8819741 -0.5873173 -0.20466594 0.5357897 -2.3610308 0.9784208
0.08722901 0.831427 0.5560352 0.45220485 -0.121971145 -1.2388567 2.061497 0.60360485
1.068603 -0.32971486 0.5158239 0.42102718 -0.17402358 -0.14199442 1.1671234 0.18904781

blocks.0.down_sample.smooth.kernel f4 [1, 1, 3, 3]
00000000: 0000 803d 0000 003e 0000 803d 0000 003e
00000010: 0000 803e 0000 003e 0000 803d 0000 003e
00000020: 0000 803d
0.0625 0.125 0.0625 0.125 0.25 0.125 0.0625 0.125
0.0625

blocks.1.residual.0.smooth.kernel f4 [1, 1, 3, 3]
00000000: 0000 803d 0000 003e 0000 803d 0000 003e
00000010: 0000 803e 0000 003e 0000 803d 0000 003e
00000020: 0000 803d
0.0625 0.125 0.0625 0.125 0.25 0.125 0.0625 0.125
0.0625

blocks.1.residual.1.bias f4 [32]
00000000: 9bb0 793f 53dc 743f ebf9 783f 0992 7c3f
00000010: 8b6b 783f 0ee8 863f 849d 7b3f 68fa 7f3f
00000020: 7244 773f bffd 6d3f f7c3 7e3f 6612 823f
00000030: 6a97 7f3f ca89 6b3f 8b66 7b3f b750 823f
00000040: 4c9d 7a3f 6b82 6b3f 2ed3 613f 2e88 793f
00000050: ccb7 763f b87a 803f 1b88 6f3f b305 783f
00000060: f0da 733f 7c36 6b3f f2f5 7b3f 497b 6c3f
00000070: 3555 713f d4ea 723f 0ae5 683f 1cd7 823f
0.97535104 0.9564869 0.97256345 0.9866033 0.970391 1.0539567 0.98287225 0.99991465
0.96588814 0.9296531 0.9951777 1.0161865 0.99840415 0.92007124 0.98203343 1.0180882
0.97896266 0.9199588 0.8821286 0.9747342 0.963742 1.0037451 0.93567055 0.96883696
0.9525595 0.9188001 0.9842216 0.9237562 0.9427064 0.9488957 0.90974486 1.0221896

blocks.1.residual.1.weight.weight f4 [32, 16, 1, 1]
00000000: 0253 dcbf 9edc 8bbf 3bf0 d2bd 3be6 063f
00000010: 4584 2340 d30f 173f d934 1dbf 8323 b13e
00000020: 04f4 583f de6d 0e3f 97a8 7d3f df10 6abe
00000030: 6fe4 3abe 54ef 7ebe a688 33bf 74c0 9e3f
00000040: 6dac a1bf 0342 babf ae75 b4bf edbe f2bf
00000050: ce7e 14c0 31c6 2d3f 1be7 1a3f 2874 653f
00000060: d7f6 90bf 198e 373e bda9 da3f 7b2a 5dbf
00000070: dd5d adbf 9792 4fbf 2f7a 2bbf c7b2 1c3f
00000080: 030c c4bf 6e16 26c0 6fd5 133f af8f 9c3f
00000090: a16e 913f 75d1 24bf 92be cf3d 470b c5bd
000000a0: 3c47 a3be ef73 c3be c26a ab3f 6111 723e
000000b0: 2d64 cdbe 2e13 80bf 6661 853e 0bb8 88bf
000000c0: 9fac b43e d8a9 1d3f f0ea babd 730e f2bd
000000d0: 8934 d9bf 288e 173d cb5f 503f 8925 28be
000000e0: 96ea 6f3f 75c5 42bf 7521 ab3c b34a 273f
000000f0: 11b6 c63e 3aa1 15be 6b11 0cbe 8e6b 0840
00000100: 714b 4bbf ad51 723f 80a5 f43f 3940 86bf
00000110: e937 8c3f 0803 d53c 1127 be3f ad38 683f
00000120: 57fe 1240 a7e5 203f dda5 11c0 8a33 3840
00000130: 3cae fa3e cae0 a2be a0ec 003f 7eae eebf
00000140: 3707 5fbf b676 39bf 4790 9fbf 2568 8a3e
00000150: 0b90 993e 72e5 b13e 7cc1 d2bf 2fea 5c3f
00000160: 66a3 1e3f 488a 023f 1b64 a73e c515 c2bf
00000170: 93c4 3c3f d264 0440 28ab af3e 8285 0940
00000180: fc43 1abf 62c4 9d3f 4408 383f d505 7f3f
00000190: ef0e 403e 9b8e b7bd 9eed 39bf 6402 e33e
000001a0: 3924 bb3d 6ca2 8abf 991d 7e3f c72a ccbf
000001b0: 9058 23bf ac7a 6b3d e49e b9bd a2e3 c23f
000001c0: e92c 88be ba8d 683f f0af 293f 4c21 db3d
000001d0: 987f 56bd ef92 d63f 5a79 d3bd 941f 61bf
000001e0: c694 3dbf 0008 50bf 31f0 bd3e 818a e1be
000001f0: 7b0b 0b3e c169 ef3e 5f0b 613f d322 653e
00000200: 650e 30c0 d0f9 213e a8f3 95bf cc36 b6bf
00000210: 5239 273f e9d0 203f 93f7 0a3e 2bbd 29be
00000220: b1c3 4fbf 9c40 823e 6c60 053f 45e7 9f3f
00000230: 910c 133f 3f6c 43be 5365 423f df7d ae3f
00000240: 7837 b0be 1764 0540 fead af3d d090 a4bf
00000250: aa47 22bf 5fe0 08c0 911e cdbf 95e8 d3be
00000260: bb87 adbf 73a3 193f 54e9 933f c4d7 903f
00000270: 9e21 ecbe 222b c33f f03b 89bf a4f4 b0bf
00000280: da2c 843e a074 24bf fe9a 693f a132 543f
00000290: cc7f c13f b0a1 883e 8d8a 58be 8589 47bf
000002a0: 7015 c53e de63 d3bf 30e1 7e3f 932c 6d3f
000002b0: 1dbb 4fbe 3a2c 9d3e 9e3b 8ebf 3709 fa3c
000002c0: 2791 293d 9b70 b33e fc87 383f 074e 65bf
000002d0: 7518 22bf 1bc4 7e3f 8751 d1bf d6fc a63f
000002e0: 7692 afbb e8b0 093f 7a29 813f 165b 88bf
000002f0: 3f7e bcbf 1ea9 46bf ad9a c03f f6ee c2be
00000300: c2c8 633f e4ff 82be a658 a13d fa15 d8bf
00000310: 101e 913d 9192 3cbf 846a 4bbf 4d96 9a3f
00000320: cc4f 913e c7fa 9fbe 781e fbbe a4a4 2240
00000330: 7c52 91bf 20d0 90bf 9f7b e9bf 236e 0ac0
00000340: bca6 cfbf 5c7a 04c0 4498 f83f 9ef9 2040
00000350: 3696 5a3f 38ed f33d 5415 163d 69d2 abbf
00000360: f2c0 753e 5717 57be 392c a5bf fa6a 71bc
00000370: a769 783f 6119 c23f 6ac1 74bd d8ad 543f
00000380: 079b 20be 1a0a a0be bd62 da3f bfb3 763e
00000390: e235 6fbe 8422 32bf 6d4c 8e3f f364 dcbf
000003a0: 2dd0 98bf 6a6e 0cbf e28b 1440 5369 50be
000003b0: 75f5 d6be dc2c a3bf abf8 73be a4cf 8f3f
000003c0: 984c 12c0 7ac8 8e3f e5ef 39bf deb6 d5bf
000003d0: a8b0 9ebe 5538 9fbf f8cc 50bf fc3b c03f
000003e0: f36c eabe 4329 e7bf 204b 803e 3538 4ebf
000003f0: 15c9 b0bf 8211 bcbf 4abd 36bf 75d0 20bd
-1.7212832 -1.0926702 -0.102997266 0.52695054 2.554948 0.5900852 -0.61408764 0.34597406
0.8474734 0.55636394 0.9908537 -0.22857998 -0.18251203 -0.24895984 -0.70130384 1.2402482
-1.2630745 -1.4551395 -1.4098413 -1.8964516 -2.3202395 0.6788054 0.6050889 0.89630365
-1.132533 0.179253 1.708305 -0.86392945 -1.354427 -0.81083053 -0.6698331 0.6121029
-1.5316166 -2.595119 0.5774755 1.2231349 1.1361886 -0.64382106 0.1014377 -0.096212916
-0.31890285 -0.38174388 1.3391955 0.23639442 -0.4011549 -1.0005853 0.26050872 -1.0681165
0.3528795 0.61587286 -0.09126842 -0.11819162 -1.6969157 0.037000805 0.8139617 -0.16420569
0.93717325 -0.76082546 0.020889977 0.65348357 0.3881078 -0.14612284 -0.1367852 2.1315646
-0.7941199 0.9465588 1.9113007 -1.0488349 1.0954562 0.026002422 1.4855672 0.9071148
2.2967737 0.6285042 -2.2757485 2.8781457 0.48961055 -0.31812125 0.5036106 -1.8647001
-0.87120384 -0.72446764 -1.2465905 0.2703258 0.2999271 0.34745365 -1.6465297 0.86294836
0.61968076 0.5099225 0.32693562 -1.5162894 0.7373745 2.0686536 0.3431027 2.1487737
-0.60259986 1.2325556 0.7188761 0.99618274 0.18755697 -0.08962747 -0.726282 0.4433776
0.09137768 -1.0830817 0.9926391 -1.5950555 -0.6380701 0.057490036 -0.09063509 1.5225718
-0.26596764 0.9084126 0.66284084 0.1069971 -0.052367777 1.676359 -0.1032588 -0.8793881
-0.74055135 -0.8126221 0.37097314 -0.44050983 0.13578598 0.4676037 0.87907976 0.22376566
-2.7508786 0.15817952 -1.1714983 -1.4235473 0.6532184 0.6281877 0.13571005 -0.16576068
-0.81157976 0.25439918 0.52100253 1.2492453 0.5744105 -0.19084261 0.7593586 1.3632163
-0.3441732 2.084234 0.08578108 -1.2856693 -0.633906 -2.1386945 -1.6024953 -0.41388384
-1.3557047 0.6001503 1.1555581 1.1315846 -0.46119398 1.5247538 -1.0721416 -1.3824658
0.2581547 -0.64240456 0.91252124 0.82889754 1.5117126 0.26685858 -0.21146603 -0.77944213
0.38492918 -1.6514852 0.9956236 0.9264614 -0.20286222 0.30697805 -1.1111944 0.030521972
0.041398194 0.3504685 0.72082496 -0.89572185 -0.6331857 0.99517983 -1.6353005 1.304591
-0.0053580357 0.5378556 1.0090783 -1.0652797 -1.4726027 -0.776018 1.5047203 -0.38072938
0.8897821 -0.25585854 0.078782365 -1.6881707 0.07085812 -0.7366114 -0.79459405 1.2077118
0.28381193 -0.31246015 -0.49046683 2.5412989 -1.1353297 -1.1313515 -1.8240851 -2.1629722
-1.6222758 -2.0699682 1.9421468 2.5152354 0.85385454 0.1191048 0.036641434 -1.3423587
0.23999384 -0.21004997 -1.2904121 -0.014734978 0.9703621 1.5163995 -0.059754767 0.83077765
-0.15684138 -0.31257707 1.7061383 0.24092005 -0.23360398 -0.69583917 1.1117073 -1.7218307
-1.193853 -0.5485598 2.3210378 -0.20352678 -0.41984144 -1.2748065 -0.23825328 1.1235242
-2.285925 1.115493 -0.72631675 -1.6696432 -0.30994153 -1.2439066 -0.8156276 1.5018306
-0.45786247 -1.8059467 0.25057316 -0.80554515 -1.3811365 -1.4692843 -0.7138258 -0.0392613

blocks.1.block.0.bias f4 [16]
00000000: b1af 873f 10c2 7b3f 0e54 613f 78be 6e3f
00000010: a45b 8c3f 70a8 843f a2cf 783f b44a 773f
00000020: 3b97 5e3f b42a 933f 69d4 763f 31f7 8b3f
00000030: 1177 733f 8d83 883f 95ea 873f 5820 773f
1.0600492 0.9834299 0.8801888 0.9325938 1.0965466 1.0363903 0.9719182 0.9659836
0.8694951 1.1497407 0.9641786 1.0934812 0.95103556 1.0665146 1.0618464 0.9653373

blocks.1.block.0.weight.weight f4 [16, 16, 3, 3]
00000000: adb5 04bd 16f1 03c0 6258 f63e 5cb5 d2be
00000010: 1e3f 0d40 02c0 a6be 6cfa 6c3e b507 27bd
00000020: a6e6 d43e a5ed fa3f f0da f73d 5041 213f
00000030: c094 413f afc8 bc3f 9445 d1be e3b8 c3be
00000040: 1891 27bd 6fee 23bf a097 d2be f37c 42bf
00000050: 0cee be3f 4d69 d13e 0652 47bf 048d 9c3e
00000060: 63e4 08bf 13ea 0040 c1a9 2ebf 44c4 c03f
00000070: bc2b 66bf b974 afbf 2115 df3f fc8f 083e
00000080: 2093 08bf 6edc a13f dfc4 e03e 1084 763e
00000090: da55 c1be ea0c 43bf 4c89 a0bd accd c3bf
000000a0: ce1e debe 9f41 c7be c347 f0ba 18ee b5bf
000000b0: 4403 05bf 15c6 a4bf 59bc fabd bd2d b73e
000000c0: 7206 103f ce1f 6dbf 3de1 9c3f 3be1 c4bf
000000d0: ef99 353f 913d e93e 7346 9b3f 7130 343f
000000e0: eb76 cebf 74c4 f03f 824a 9cbd db06 39bf
000000f0: d4e6 ae3e 68a9 003f 5538 613f f90b 8e3e
00000100: 214c b93e 080e 5a3f 7010 fbbe f78c bb3f
00000110: f58c 0d3f 571c e73d 279b 123f 39fb d0bc
00000120: 0e27 6f3f 9cbb 983f 42b8 873f 926e fbbf
00000130: 1db0 89bf e8fd a23f 5211 1f3f e9f6 5bbf
00000140: 6d8f c5be d105 73bf 9254 81bf 89a1 9a3f
00000150: 0120 883f 47f0 22bf cac8 d8be 8425 1fbf
00000160: d708 05be 77a5 93be 13b4 82bf 3d17 81bf
00000170: 375c 2abf 4c14 163e 315e 863f 4de8 b0bf
00000180: eb59 443f e0f8 a7bf 198b 64bf 1497 6ebe
00000190: 8949 fcbe 790c 2dbf 9eaa 99bf 3bb4 fa3e
000001a0: 5866 ccbe cd02 623f 2053 b53f 1909 0d3f
000001b0: 6125 d93d a65a aa3f 0e7d cdbe 84e1 893e
000001c0: 8e5b 173f 2ef5 5e3f f79c 00be f5ae b5bf
000001d0: 5ad8 6e3f 9c25 8cbe f878 0b3f 6f75 f0be
000001e0: 95cc e9be d25b 0040 33f8 b33d 9b4a 9c3f
000001f0: adc1 29be cf87 9b3d 77e9 d5bf 4817 063f
00000200: f531 21bf 96ec d93e 6800 3dbe 7677 8dbf
00000210: 04b9 78be 17c3 04bd b26d 0740 74cc 033f
00000220: b71d 0dbf 6a0f ff3d 7214 13bf c10b 8fbf
00000230: a07a 693e 6692 b13f c298 80be 1002 4abf
00000240: 26a6 79bf a012 57bd a69d 6d3e df80 f83f
00000250: 5f0f 263f ae3a abbf 7043 803e 500f 8dbf
00000260: 7454 653f a419 d63e f2d6 dfbf bf2c ba3f
00000270: d661 e83f e0ae f3bf 6bb9 01bf cc47 3abe
00000280: 9545 f9be 8344 ee3f 9237 b4be f7f5 c23f
00000290: cad3 173f abd4 c73e 5d56 44bf 48cf 15bf
000002a0: 2c01 d73f db9e 843e 87e3 793e 1c1e 2abe
000002b0: 1b27 243f c2ad 353f 3e7a 953f cf91 58bf
000002c0: b3c1 723f 6d4c 3abf 873c 8dbf fa19 d3bf
000002d0: 5b50 18bf 87d0 d43f 54db 203f cbeb eb3d
000002e0: 0ada f23f 721a 17bf 5298 55be a908 22bf
000002f0: 45af d3bf ffff bb3e 58e6 09c0 151a 9bbe
00000300: 12e8 0c40 0c3d ce3f b193 b9bf 39ae 92bd
00000310: cccb 8a3f 86ae 9abf bb5d 85bf b83a abbe
00000320: b20f c93f efcf 193f 1c8e 8abe 4acd a9bf
00000330: 28a3 0f40 7968 fabf 705b 293f 37d2 cf3f
00000340: d2f7 48bf 2c58 2140 f663 b9bd 11eb 433f
00000350: f612 8c3e b5e5 b83f caa6 073f 665e a53e
00000360: 1446 0e3e 0a49 be3e e82f 3f3d 538c 23be
00000370: 2bf0 d0bf ed03 a23f 988e 243f a9b6 c93e
00000380: 80a3 08c0 a6da 72bf 31bb be3e 1199 acbf
00000390: 125b 67bf 7b03 0140 def5 df3f 0ac6 323f
000003a0: 0b14 033e 1af3 60bf 5da9 9a3e fc9b ff3e
000003b0: 167a a4bf a24d 15bf 3998 923d b4af 203d
000003c0: 28c6 633f 9345 8e3f 59aa 71be 0d7d 8d3f
000003d0: 819d 6cbf 62c7 6cbf cc0c df3d cac8 073e
000003e0: 42e1 b93f e46d ebbe a218 673d 1d98 f6bf
000003f0: 480d 68bd cb84 543f 6f94 3a3f 6c12 963f
-0.032399822 -2.0615897 0.48114306 -0.4115399 2.2069774 -0.32568365 0.23142403 -0.040778834
0.4158222 1.9603773 0.12102306 0.62990284 0.756176 1.4748744 -0.40873396 -0.38226995
-0.040909857 -0.64035696 -0.41131306 -0.7597191 1.4916396 0.4090065 -0.7785953 0.30576336
-0.5347349 2.0142868 -0.68227774 1.5059896 -0.89910483 -1.3707496 1.7428323 0.13336176
-0.53349495 1.2645395 0.439002 0.24073815 -0.37760812 -0.7619158 -0.07838687 -1.5297141
-0.43382877 -0.38917252 -0.0018331934 -1.4213285 -0.5195811 -1.287295 -0.12242956 0.35777083
0.56259835 -0.92626655 1.2256237 -1.5381235 0.7093801 0.45554784 1.2130874 0.70386416
-1.6130041 1.8809953 -0.07631399 -0.72276086 0.34160483 0.50258493 0.8797658 0.2774351
0.36190894 0.8517766 -0.49035978 1.4652394 0.5529321 0.11284702 0.57267994 -0.025510417
0.9341897 1.1932254 1.0603106 -1.9643118 -1.075687 1.2733736 0.62135804 -0.8592363
-0.38585988 -0.9493075 -1.0103934 1.2080547 1.0634767 -0.63647884 -0.4234069 -0.6216662
-0.12991653 -0.28837177 -1.0211204 -1.0085217 -0.6654696 0.1465618 1.0497495 -1.3820893
0.76699704 -1.3122826 -0.89274746 -0.23299819 -0.49274853 -0.67597157 -1.2005193 0.4896563
-0.39921832 0.88285524 1.4165993 0.55092007 0.106028326 1.3308914 -0.40134472 0.26929867
0.59124076 0.87092865 -0.12559877 -1.4194018 0.93298876 -0.27372444 0.5448146 -0.46964595
-0.45663896 2.0056043 0.087875746 1.2210268 -0.16577788 0.07594263 -1.6711873 0.52379274
-0.62966853 0.42563313 -0.18457186 -1.1052082 -0.24289328 -0.032412615 2.1160703 0.51483846
-0.55123466 0.12454112 -0.5745307 -1.1175462 0.22800684 1.3872802 -0.25116545 -0.789094
-0.9751915 -0.052507997 0.2320467 1.9414328 0.64867204 -1.3377283 0.2505145 -1.1020298
0.8958199 0.41816437 -1.7487471 1.4544905 1.8154857 -1.9037743 -0.5067355 -0.18191451
-0.486859 1.8614658 -0.35198647 1.5231313 0.5930754 0.3902944 -0.7669428 -0.5851941
1.6797233 0.25902447 0.24403201 -0.16613048 0.6412217 0.7096826 1.167793 -0.84597486
0.9482681 -0.72772866 -1.1034096 -1.6492302 -0.5949761 1.6626137 0.6283467 0.11519583
1.897279 -0.5902473 -0.20858887 -0.63294464 -1.6537863 0.36718747 -2.154684 -0.30293337
2.2016644 1.611238 -1.4498197 -0.071621366 1.0843444 -1.208451 -1.0419229 -0.33443236
1.5707915 0.60082906 -0.27061546 -1.3265774 2.2443333 -1.9563133 0.6615515 1.6236027
-0.78503144 2.5210066 -0.09052269 0.7653056 0.27358216 1.4445101 0.52988875 0.32298583
0.1389392 0.371651 0.046676546 -0.15971498 -1.6323293 1.2657448 0.6428008 0.3939717
-2.1349792 -0.9486488 0.3725219 -1.3484212 -0.9037334 2.0158374 1.7496908 0.69833434
0.12800615 -0.87870944 0.3020734 0.49923694 -1.2849758 -0.58321583 0.071579404 0.039230064
0.8897424 1.1114982 -0.23600139 1.1053787 -0.9242783 -0.92491734 0.10891113 0.13260189
1.4521868 -0.45982277 0.056419976 -1.9265171 -0.05665329 0.83015126 0.7288274 1.1724372

blocks.1.block.2.bias f4 [32]
00000000: b684 823f b319 8a3f 8439 803f 5e96 7d3f
00000010: 5a2e 7a3f e179 893f 1dc8 7a3f c5b4 7b3f
00000020: 3d18 7e3f 5a25 843f 9f0e 813f 0102 7c3f
00000030: f2cb 7d3f 9a24 8f3f 0de7 823f 5b3a 853f
00000040: 8421 843f 3e16 813f c08c 7e3f 7084 7d3f
00000050: f807 893f bb7a 803f e9bf 843f 9d5c 7f3f
00000060: f3da 733f fa20 6b3f 8e19 7a3f d701 5c3f
00000070: b57f 703f 4f6e 8a3f 5855 873f ccea 833f
1.019675 1.0789093 1.0017552 0.9905757 0.97726977 1.074032 0.979616 0.9832271
0.99255735 1.0323899 1.0082587 0.9844056 0.9913932 1.1183045 1.0226761 1.0408434
1.0322728 1.0084913 0.9943352 0.9903021 1.0705557 1.0037454 1.0371066 0.9975069
0.95255965 0.91847193 0.97695243 0.8594031 0.93944865 1.0814914 1.057292 1.0306029

blocks.1.block.2.weight.weight f4 [32, 16, 3, 3]
00000000: f76a c13e 2632 c23e 9cdd fdbf 7277 283f
00000010: 15a8 5540 1ead 2d3f 784c 0c3f 85a7 0cbf
00000020: 9f2b f43c b9ea a2bf 2e0b 79bd 6d20 f73d
00000030: 2f7b debf 21f0 903d c515 993f 4a05 96be
00000040: 5abe c2bf 5fed 1240 9538 a53f 321e cc3e
00000050: b338 163f cc64 913f f494 7bbf 97b6 0dbe
00000060: e982 7cbf a5b7 c23f 1ea0 adbf 133c e73e
00000070: f273 573f 7872 bdbd a35d 48bf 83a4 29bf
00000080: 1fa4 66bf 47cc b43e 6eed 0d3f d2f6 113f
00000090: 6569 12bf 690c d9bc e796 243f 80b5 b03e
000000a0: a9e6 ca3f 0304 a03f d449 b23d 3e14 c43f
000000b0: 1120 15bf d864 3fbf 068a 14c0 fc57 a63f
000000c0: 7acc 9a3f 77cf f93e a82f 003f 3bca 1bbf
000000d0: c89d 2b3f 509f ddbe f5b7 27be 7da8 86be
000000e0: 6288 40bf 385d 3e3f 4a32 7f3f ca4a 9b3f
000000f0: cbc3 b83f eee1 c13f 90b5 b2bf d9fe 12be
00000100: 0c04 c3be 0ba1 033e 296f 523f 5a85 1940
00000110: dd34 b7be 02c8 78ba 893b 54bf 4d21 7ebc
00000120: c5c2 5dbf 614d ecbd 49dc 16be 2d8f 293f
00000130: 9f3c 90bb 5298 ab3f e438 f83f 74f9 41bf
00000140: e88f c73e c271 37bf ee89 183f 5b9f d23f
00000150: dc4e 1640 f78c a1bf 47b4 88bf 173d 0e3f
00000160: c989 0340 03b0 f0bf 8ac0 783f 9ba0 27be
00000170: 958d 78bf 1dcd abbd 36f4 e2be 6ecf a3bf
00000180: f0a9 e6bf 091a 0240 e88e fabf 0e49 3e3e
00000190: ee0d 12bf d3de 0b3f d957 003f f2be 4d3e
000001a0: 73f8 8f3f b3eb 8fbe 6ccc 2c3f 0fc3 213f
000001b0: b6be 103f 906c 223f 5788 17bd 7a8f 863e
000001c0: 8ca6 0cbf dd9a d1be 5b6c f13e 4792 8b3f
000001d0: 9e5d 2ebf 7b5f 4b3f c650 a9be e402 adbe
000001e0: 6b76 1abe b911 1dbf 5e35 12be ec11 733f
000001f0: b804 6b3f 90a6 fcbe 8767 81be e584 133f
00000200: 586c da3f cb63 e33f 85af cbbe b0f6 b9bf
00000210: efbb 513f 837d f53e 5256 303f 9a4f fdbf
00000220: 1710 883f aebc 8dbf 6b28 d63f eca1 313e
00000230: 5144 82bf eb5e febf 0b61 51bf a312 a9bf
00000240: 24b7 75be ab2b 02c0 61ab 2b3e 35b3 353d
00000250: de63 733e dcb7 c33f 65cd afbd 327c 14bf
00000260: 93f4 323f 8ecd 2f40 d636 28bf 9eae dd3f
00000270: 5992 80bf 5281 0a40 477c 383f c635 2c3e
00000280: 0d1e ec3e 6542 28be 7af3 f43f fd74 8bbf
00000290: 0a4b d4be 9f3b 84bf dcc5 3bbe 02b9 b4bd
000002a0: 6791 d83f 9f89 6fbf b08e 3c3f d160 8f3e
000002b0: 3518 823f b087 483f 9a85 90bb 6cf4 d2be
000002c0: b3a9 c53f c7aa 88bf 3611 0dc0 81f7 82bf
000002d0: 3260 8bbf 6c3a e83e 82d6 fa3f ddab 273d
000002e0: cf71 383f 31fd 0fbf b856 963f bb61 0d3f
000002f0: 8d02 87bf 5329 83bf 8af6 a93e 26c2 0640
00000300: 4a1c 8ebe a295 b4bf b4c9 35bf 1223 29c0
00000310: e83f 14bf 4e6e d33d 78fa e4bd 6c7a 923f
00000320: 45ca b03f d7c8 213f d863 723f 8d63 a3bf
00000330: 72e2 ab3e 0a08 aabe 73ea 053f 232e a13f
00000340: c68c 423f cc1c 293f 5717 b2bf ce0d e1bf
00000350: 2390 c53e d2be 0bbd 2538 4c3f e6fb 01bf
00000360: d5a7 c23f 7753 8abf 500f c13f 88d6 4cbe
00000370: 6ca1 97bf 140f afbf e367 d73f c114 85be
00000380: 25b4 80be bf57 f13d 2c58 06bf e360 013f
00000390: 893d 733f 4cc4 59bf 5996 3d3f 330b 563d
000003a0: 3f97 15bf 9646 0dc0 3f62 afbe df6e 87be
000003b0: c170 d6bf 21f4 febc 2ccf 42bf 695f febe
000003c0: f6c5 20bf ba57 b7bd 1cb0 033e 399e 063f
000003d0: eb3b 113e d04f 8f3d 7fec 0740 c47a 09bf
000003e0: 68f2 e53f 33b2 15c0 9e58 3cbf a5e3 4f3f
000003f0: 8eb4 bfbe 7a52 27be d9b6 0f3e 78cb 483e
0.3777692 0.37928885 -1.9833255 0.6580726 3.338384 0.6784228 0.5480418 -0.54943115
0.029805956 -1.2727882 -0.060801677 0.120667316 -1.7381343 0.07077051 1.1959769 -0.2930091
-1.5214341 2.295738 1.2907892 0.39866787 0.58680266 1.1358886 -0.9827416 -0.13839184
-0.98637253 1.5212294 -1.3564489 0.4516302 0.84161294 -0.09250349 -0.7826788 -0.6626665
-0.9009418 0.353121 0.55440414 0.5701724 -0.5719207 -0.026495175 0.6429276 0.34513474
1.5851642 1.2501224 0.08705488 1.5318677 -0.58252054 -0.7476325 -2.3209243 1.2995601
1.2093651 0.48791096 0.5007272 -0.60855454 0.6703763 -0.43285608 -0.16378768 -0.2630042
-0.75208104 0.7436099 0.9968611 1.2132199 1.4434751 1.5147073 -1.3961658 -0.14355029
-0.38089025 0.12854402 0.82200867 2.3987641 -0.3578252 -0.00094902527 -0.82903343 -0.015510869
-0.8662532 -0.11538196 -0.1473247 0.66234094 -0.004401758 1.340586 1.9392362 -0.7577126
0.3897698 -0.71657956 0.59585464 1.6454881 2.3485632 -1.2621144 -1.0680016 0.55561966
2.0552847 -1.8803715 0.9716879 -0.1636986 -0.9709104 -0.08388732 -0.44326943 -1.2797678
-1.8020611 2.032839 -1.9574862 0.18582556 -0.57052505 0.5463688 0.50134045 0.20092371
1.1247696 -0.28109512 0.67499423 0.6318826 0.56541 0.63446903 -0.03699526 0.2628134
-0.5494163 -0.40938464 0.4715298 1.0904015 -0.681116 0.79442567 -0.33069438 -0.33791268
-0.15084235 -0.6135517 -0.1427817 0.9494922 0.91804075 -0.49345827 -0.25274298 0.57624656
1.7064314 1.7764829 -0.39782348 -1.4528408 0.8192739 0.4794732 0.68881714 -1.9789917
1.062991 -1.1073205 1.6731085 0.17346925 -1.0177099 -1.9872717 -0.817887 -1.3208812
-0.23995644 -2.0339153 0.16764595 0.04436036 0.23768565 1.5290484 -0.08584098 -0.58002007
0.6990444 2.746921 -0.65708673 1.7318914 -1.0044662 2.164143 0.7206463 0.16817388
0.46116677 -0.16431578 1.9136803 -1.0895077 -0.414635 -1.0330695 -0.18337196 -0.0882435
1.6919373 -0.9356937 0.73655224 0.28003553 1.0163637 0.7833204 -0.004410458 -0.41202104
1.5442413 -1.0677117 -2.2041755 -1.0231782 -1.0888731 0.45357072 1.9596713 0.040935386
0.7204866 -0.56245714 1.1745214 0.5522725 -1.0547653 -1.0246986 0.33195907 2.1055999
-0.27755958 -1.4108164 -0.710109 -2.6427655 -0.57910013 0.10323773 -0.111805856 1.144361
1.3811728 0.6319708 0.946836 -1.2764755 0.33571202 -0.33209258 0.52310866 1.2592205
0.75996053 0.66059566 -1.3913373 -1.7582338 0.3858653 -0.034117527 0.7977317 -0.5077499
1.5207468 -1.0806721 1.5082798 -0.20003712 -1.1846137 -1.3676476 1.6828579 -0.25992396
-0.2513744 0.11784314 -0.5247829 0.5053846 0.9501577 -0.8506515 0.7405754 0.052256774
-0.5843391 -2.2074332 -0.34254643 -0.26451775 -1.675316 -0.03112227 -0.7609737 -0.49682167
-0.62802064 -0.089522794 0.12860149 0.5258518 0.14183013 0.06997645 2.1238096 -0.5370295
1.7964602 -2.3390014 -0.7357272 0.81206733 -0.3744244 -0.16340056 0.14034595 0.19608867

blocks.1.down_sample.smooth.kernel f4 [1, 1, 3, 3]
00000000: 0000 803d 0000 003e 0000 803d 0000 003e
00000010: 0000 803e 0000 003e 0000 803d 0000 003e
00000020: 0000 803d
0.0625 0.125 0.0625 0.125 0.25 0.125 0.0625 0.125
0.0625

blocks.2.residual.0.smooth.kernel f4 [1, 1, 3, 3]
00000000: 0000 803d 0000 003e 0000 803d 0000 003e
00000010: 0000 803e 0000 003e 0000 803d 0000 003e
00000020: 0000 803d
0.0625 0.125 0.0625 0.125 0.25 0.125 0.0625 0.125
0.0625

blocks.2.residual.1.bias f4 [64]
00000000: 654c 7d3f a149 7f3f d1b2 7e3f 3e93 783f
00000010: ab0d 783f f25b 7c3f 8548 803f 56f3 723f
00000020: 11da 7c3f 8bf2 7c3f b5c4 7c3f da06 803f
00000030: 37f7 7c3f 7215 7a3f 6270 823f aa37 703f
00000040: aaba 773f 6871 803f 6e1a 4f3f 1879 6b3f
00000050: b3f7 7b3f 7e03 7c3f 1b3b 813f 396c 813f
00000060: fe5b 7b3f 7845 763f 2889 7e3f 54b5 813f
00000070: 0298 7b3f b85a 763f 910e 793f 7dfc 803f
00000080: 8136 6a3f 6cce 803f 0036 5e3f 5d7e 7b3f
00000090: 6d70 773f 939b 823f 80b4 7f3f a6d5 853f
000000a0: 1b41 7d3f 4011 813f db9f 7e3f b5a9 603f
000000b0: bb49 7c3f 6d0f 793f d9cb 7a3f 83d8 823f
000000c0: 9a43 803f 5d3a 6f3f d517 633f 92fb 7c3f
000000d0: 82ec 7e3f 32c0 793f 3d0e 8e3f 9fe3 773f
000000e0: 2a7c 803f 0cf8 7c3f 1ff9 7d3f 06d0 6c3f
000000f0: c98a 7f3f 0d1a 823f 8209 793f 5570 7e3f
0.98944694 0.99721724 0.994916 0.97099674 0.96895856 0.985778 1.0022131 0.9490255
0.9877024 0.9880759 0.9873765 1.0002091 0.9881472 0.9768897 1.0190547 0.93834937
0.967692 1.0034609 0.80899704 0.9198165 0.98424834 0.9844283 1.0096163 1.0111152
0.98187244 0.9619975 0.99428034 1.0133462 0.9827882 0.96232176 0.9728785 1.0077053
0.91489416 1.0062995 0.8680115 0.9823969 0.96655923 1.0203727 0.99884796 1.0455825
0.9892747 1.0083389 0.9946267 0.8775895 0.98550004 0.9728916 0.97967297 1.0222324
1.002063 0.9344843 0.8870824 0.98821366 0.9957963 0.9755889 1.1098095 0.968317
1.0037892 0.9881599 0.99208254 0.9250492 0.99821144 1.01642 0.9728013 0.99390155

blocks.2.residual.1.weight.weight f4 [64, 32, 1, 1]
00000000: 13b3 ec3f 18db 24be e67a dbbf a7eb 6b3f
00000010: 0b6a 0340 8628 44bf 069e 2cbe eb2d 883f
00000020: 28d1 383f afea 543f 2244 b23f 10c4 76bf
00000030: 3ea9 1ac0 467b cdbf 4722 35bf 5546 f53e
00000040: f51b 4abe c76a 1640 4dc3 40bf c485 77bf
00000050: 23bd 59bc 730e a6bf dca6 153e 7ba4 ebbe
00000060: 5754 0d3e 3e08 893e 89e3 6a3f 89a8 cebf
00000070: 47df 86be 6bb1 bb3f 0e2b 85bf 7e90 8b3f
00000080: 4811 9bbe 11bc 4bbf ed12 37bf 7082 b7bf
00000090: 553c 2cbf 4b74 e1bf e7c9 b8bf 280a 8f3e
000000a0: f202 c5bf 29e0 40c0 e5ef 303f ea09 7dbe
000000b0: 9680 9dbe c1c2 553f b756 fabe 9482 21be
000000c0: 872c 793f ef1c 73be 809f c43e 3e3d 92bf
000000d0: c5af 033f 9abd 5cbf d154 6a3f e8f0 69be
000000e0: 8ed2 63bf 1b3d 7dbf a1e5 613f 6b9c 56bf
000000f0: 303d 203c 44e0 103a 8d2a 0abf ec77 ab3e
00000100: 2dfb 5ebf 1882 8fbf 88c5 893f 3cd0 833f
00000110: 4642 e33d 3f70 113f 04e5 8dbe 7735 e03c
00000120: ed84 483f 78be 8a3f eb59 4d3f 789e 2ebe
00000130: db9f c9be 7348 153f 0d4d 77bf d7de e33f
00000140: f6db ba3f a4e9 7ebf fb72 62be f2dd 07bf
00000150: be54 133f 8973 d03e 3f7c 853e 2212 0e3c
00000160: 1f8f ad3f 58cf 1a3e 927c 9fbf 7c2d e53f
00000170: c72f f6bf 37df 533f e698 43bf 177c 113f
00000180: b4d0 7abf 8ab5 593f e5e0 dfbe 50bd b5bf
00000190: 2b23 8cbe 1aed 94bb 4ff0 86bf 95a1 5b3f
000001a0: 1c36 8c3e d1d9 98be 9124 17bf 75d4 62bf
000001b0: 6dc9 533f 7b60 0bbf 4a86 263f e539 603f
000001c0: ea16 8abf 5333 edbf 180b 973e 65b7 843f
000001d0: 8fbc 8d3f 3a72 d33e 44a0 b93d f250 e33e
000001e0: e82d 77bf 6a25 29bf 8799 8d3f 3ffb 0740
000001f0: 14f7 f43e 99ba a0bf df9f 8fbe 17af e03d
00000200: 104f 053f 01fe 673f c1d7 263d 5be2 6a3f
00000210: 2393 24be a733 2abe 4093 803e 2b1c 83bf
00000220: 9240 843f 5a81 693f d27e 3fbf 9318 593f
00000230: 390e 593e 8afb 63bf 6748 113f b225 d63f
00000240: c8d4 09bf 941d c63f d809 8b3f 1e1a 66bf
00000250: 5508 0240 830a 943d b5f2 833e c9f8 0340
00000260: 8c62 443f 3ddf e03e 9925 7abe 4929 c9be
00000270: 618f 0cc0 2cd4 673f 20f8 b9bf 21b7 4a3f
00000280: ea43 e63f cbf2 1440 fac7 293f 07d9 943f
00000290: 876c a33f f745 493f 57be aabf b213 22be
000002a0: 7a98 7d3f 1c08 62bf ee5c e4bf 634d e53e
000002b0: 307e febd b0d0 86bf 653a afbe 0219 eebe
000002c0: a239 6a3f bbad 1a3e af1b d1bf a422 173f
000002d0: df02 bfbf af13 733e 864e 713f 19bc bebf
000002e0: d8ad 123f 4a5b c1be 32f2 f5bf fb12 64bf
000002f0: 78ea 963e d431 1640 5d0a c93f 1cdb a23f
00000300: 9da3 393f ec37 3dbf aade a5be a6ea 99bf
00000310: 9ba6 333f 7ea8 6dbf 1d22 4e3e 60b0 c0be
00000320: ed3d 28bf 2517 0f3f 6dc2 893e fbbd cebe
00000330: eb8b 82bf 5afa cb3f 0470 e4bf 53e6 883f
00000340: 9b5e f23e 4a76 5bbf 0b11 b3be c1f7 bcbf
00000350: cf69 15c0 c8c8 7d3f 7c76 bebe 7ae4 b7bf
00000360: 8cb9 94bf fd1c 1dbf ddb8 933e 95b9 2040
00000370: 7aab e5be 8b51 8abf 4779 41be 2b6b 253f
00000380: eb82 94bf afa6 28bf d140 e5bd 312b 443f
00000390: c819 753f 0cc6 803d ca3c a13f af0f fcbf
000003a0: 2326 fe3f c084 a03f 468c c23f 0f28 813d
000003b0: 15ad 6a3f eb8d 713f 7966 813f cc48 6b3f
000003c0: 2045 0e40 a2f3 d9be c09d a3bf 8436 983e
000003d0: 7d92 27bf 5739 3f3f 69a3 95be 0f7b d8be
000003e0: 135b f1be a4e3 6fbe 4923 c63f f97f 15bf
000003f0: b9c1 4c3f 5b89 3e3f 94ef 1e3f a2a1 22bf
1.8492149 -0.16099203 -1.7146881 0.9215645 2.0533473 -0.76624334 -0.16857156 1.0639013
0.7219415 0.831706 1.3927042 -0.9639292 -2.4165797 -1.6053245 -0.7075543 0.47905222
-0.19737227 2.3502672 -0.75298005 -0.96688485 -0.013289723 -1.297316 0.14614433 -0.46023926
0.13801704 0.267641 0.9175344 -1.6145183 -0.26342222 1.4663519 -1.0403764 1.090347
-0.30286622 -0.7958384 -0.71513253 -1.4336681 -0.6727956 -1.7613615 -1.4436616 0.27937436
-1.5391524 -3.0136817 0.6911605 -0.24710813 -0.30762166 0.83500296 -0.48894283 -0.15772468
0.9733357 -0.23741506 0.3840294 -1.142494 0.5144008 -0.8622681 0.9153567 -0.22845805
-0.88993156 -0.98921365 0.8824101 -0.83832425 0.009780213 0.0005526582 -0.5397118 0.3348993
-0.87102014 -1.1211576 1.0763407 1.0297923 0.11096625 0.568119 -0.27713788 0.027369244
0.7832783 1.0839376 0.8021533 -0.17052639 -0.39379773 0.58313674 -0.96601945 1.780238
1.4598377 -0.9957526 -0.22114174 -0.53073037 0.5755118 0.40713146 0.26071355 0.008671315
1.3559302 0.15118158 -1.2459891 1.7904506 -1.923333 0.82762474 -0.7640518 0.5682997
-0.97974706 0.8504263 -0.43726268 -1.4198399 -0.2737058 -0.0045448663 -1.0542086 0.8579343
0.27385032 -0.2985368 -0.5904017 -0.88605434 0.82729226 -0.5444409 0.6504866 0.8758834
-1.0788243 -1.8531288 0.2950065 1.0368468 1.1073169 0.41298085 0.09063771 0.44397694
-0.9655442 -0.66072714 1.1062478 2.1247098 0.47844756 -1.2556945 -0.2805166 0.10970896
0.52073765 0.90621954 0.040733103 0.9175164 -0.16071753 -0.16621266 0.25112343 -1.0242971
1.0332205 0.91213 -0.7480289 0.8480312 0.21196832 -0.89055693 0.567511 1.6730254
-0.53840303 1.5477777 1.0862379 -0.898836 2.0317585 0.072285675 0.25771108 2.0620596
0.7671287 0.43920317 -0.24428405 -0.3928931 -2.1962512 0.90558124 -1.4528847 0.7918568
1.7989476 2.327319 0.66320765 1.1628731 1.2767495 0.7862238 -1.3339337 -0.15827826
0.99060786 -0.88293624 -1.784086 0.44785604 -0.12426412 -1.0532436 -0.3422424 -0.46503454
0.9149419 0.15105335 -1.6336573 0.5903723 -1.4922751 0.23737977 0.9426044 -1.4901153
0.57296515 -0.3776496 -1.9214537 -0.8909146 0.2947576 2.3467913 1.5706288 1.2723117
0.7251528 -0.73913455 -0.32396442 -1.2024734 0.70176095 -0.92835224 0.201302 -0.37634563
-0.6571949 0.5589469 0.26906148 -0.4037932 -1.019895 1.5935776 -1.7846684 1.0695289
0.47337803 -0.8572737 -0.3497394 -1.4763108 -2.334583 0.9913449 -0.3719977 -1.43666
-1.1619124 -0.6137236 0.28851977 2.511327 -0.4485739 -1.0806135 -0.1889392 0.6461665
-1.1602453 -0.6587934 -0.111940034 0.76628405 0.95742464 0.062877744 1.2596676 -1.9692286
1.9855388 1.2540512 1.5199058 0.06306469 0.9167035 0.94357175 1.0109397 0.91907954
2.222969 -0.4256869 -1.2782516 0.29729092 -0.654579 0.7469687 -0.29226235 -0.42281386
-0.47139797 -0.23426682 1.5479518 -0.58398396 0.799831 0.7442834 0.6208432 -0.6352788

blocks.2.block.0.bias f4 [32]
00000000: 1b67 823f a0cc 813f 25af 7e3f ef9d 7b3f
00000010: 0885 8c3f 362f 7c3f 36f1 753f e1fd 813f
00000020: adc2 873f b85e 783f 742c 693f 1872 643f
00000030: eea5 813f 493f 873f efe1 763f 0bd1 863f
00000040: 3eae 773f c047 813f 781f 813f 8a56 7a3f
00000050: 8370 873f 6956 793f 2e9f 6f3f af3e 7f3f
00000060: bd25 853f 25d7 653f 6700 823f 1443 823f
00000070: 0460 803f b415 7f3f d04c 7d3f 4a4b 843f
1.0187715 1.0140572 0.99486 0.9828786 1.0978098 0.9850954 0.96071184 1.0155603
1.0606285 0.9701953 0.91083455 0.89236593 1.0128763 1.0566188 0.964385 1.0532545
0.9675025 1.0100021 1.0087729 0.977883 1.0581211 0.97397476 0.93602264 0.9970502
1.0402142 0.8978141 1.0156373 1.0176721 1.0029302 0.9964249 0.9894533 1.0335476
