gradient-inversion-generative-image-prior/inversefed/genmodels/stylegan2_mnist/test_output/checkpoint/GAN_GEN_2000.pth (torch, 499462 bytes, 42 tensors)

initial_constant f4 [1, 64, 4, 4]
000000 13 02 55 3f 9f 66 b8 3f 39 00 d8 bf 02 36 84 3f
       0.8320629 1.4406317 -1.6875068 1.0328982
000010 25 ac 05 bf 9a 87 5f bc 35 a3 31 3f a6 e9 f8 be
       -0.52215797 -0.01364317 0.6938966 -0.4861576
000020 1c 11 5b bd 84 14 95 bf 9a be 2a c0 4b 5d bc 3f
       -0.053483114 -1.1646886 -2.6678834 1.4715971
000030 3f a2 f2 be 32 25 23 bd c9 21 70 3f 66 0d 11 be
       -0.4738941 -0.039830394 0.9380155 -0.14165267
000040 63 03 ef be 24 31 e8 3f a8 ba 8e bb fb 6e 78 bd
       -0.4668227 1.8139997 -0.0043557473 -0.060652714
000050 cb 5e 54 3f 4d 65 e1 3e de 64 7d 3d 2f dd 78 be
       0.8295714 0.440226 0.061863773 -0.24303125
000060 47 07 fe bf 0c 40 86 bd 3b f1 55 bf 9a 68 50 c0
       -1.9845971 -0.06555185 -0.83571213 -3.2563844
000070 3b 8d 16 3e 0a e4 85 bf 6f 35 ec bf b9 62 ca 3e
       0.14702313 -1.0460217 -1.8453807 0.39528444
000080 ca 5a a5 bf f2 f7 92 bf d7 d9 72 3f 5f bb 50 3f
       -1.2918332 -1.1481917 0.9486365 0.81535906
000090 56 91 4e 3e a9 bd e9 3d dc 68 df 3f b4 b9 62 3f
       0.20172629 0.11413128 1.7453876 0.8856461
0000a0 58 9e aa 3e 9e 49 60 bd 1c 38 c9 be 65 19 47 bf
       0.33323932 -0.054757707 -0.3930062 -0.77773124
0000b0 0d c8 15 be 18 da bc 3f e0 0f c5 3f 77 90 fb 3f
       -0.14627095 1.4754057 1.539547 1.9653462
0000c0 cd 4f 7f 3f da 4f bc be 71 15 d5 3f ea 5d 85 3e
       0.9973114 -0.36779672 1.6647168 0.26048213
0000d0 71 e1 f3 3e 3b 27 67 3e 51 84 d6 3f ae 7c 76 be
       0.47632936 0.22573559 1.675913 -0.24070999
0000e0 22 b0 12 3f 3a 73 d6 bd d6 fb 6b be bb 4e fb 3f
       0.5730001 -0.104711965 -0.23045287 1.9633402
0000f0 17 9c cb be b9 77 9f bf 34 89 83 bf 5f 59 eb bf
       -0.39767525 -1.2458411 -1.0276246 -1.8386649
000100 82 41 f8 3e 17 69 30 bf 64 6c d1 3e 95 8e f5 3e
       0.48487478 -0.68910354 0.40903008 0.47960344
000110 74 9e 9e 3f 1b f0 94 bf 29 53 23 3f 9f 36 f1 bc
       1.2392106 -1.1635774 0.6379877 -0.02944499
000120 dc 7b 02 40 d2 c8 e6 be 3f a1 5d bf aa 49 aa 3e
       2.0388098 -0.4507509 -0.86574167 0.33259326
000130 3d 2f 8a 3e 09 9e 68 3f bc 7d 54 be f7 ba 87 bd
       0.26989165 0.9086614 -0.20751089 -0.066274576
000140 46 79 99 3d 27 0d 09 c0 5c d2 b8 3e 3f d7 69 bf
       0.07493834 -2.1414278 0.3609799 -0.91344064
000150 81 6a a9 bf ce 91 a8 3e 67 13 12 c0 f8 02 fd 3e
       -1.3235627 0.3292374 -2.2824342 0.49416327
000160 52 cb e5 be 5c 92 77 3f 85 49 07 be 41 71 d8 be
       -0.44881684 0.967077 -0.13211639 -0.42273906
000170 76 6b 1b 40 5f 98 83 bf bf 42 a7 bf 76 10 c3 3d
       2.428434 -1.0280875 -1.3067244 0.09524624
000180 0a c2 6a 3f 3d c4 6e bf 8e 82 43 3f b0 9e 07 c0
       0.9170233 -0.93268186 0.76371086 -2.1190605
000190 86 d0 d2 3f c3 a8 f4 bf 32 d3 e5 3f fa 90 4d 3f
       1.6469886 -1.9114002 1.7955077 0.8029934
0001a0 b2 56 02 bf 66 f2 71 3f 08 0b ba 3f 5d 51 7b 3f
       -0.50913537 0.94510496 1.4534616 0.98171026
0001b0 b3 69 1c bf 38 14 57 3d 60 1e ce 3e 38 ca c9 3f
       -0.61098784 0.052509516 0.4025755 1.5764837
0001c0 32 8a 95 bb 02 0b 75 3f 1a 0f 47 3f 93 9d 29 bf
       -0.0045635933 0.9571992 0.7775742 -0.66256064
0001d0 88 99 4e 3f fc 8f b9 3e 79 fd a0 3d 0e fa 4d 3f
       0.8070302 0.36242664 0.07860846 0.8045968
0001e0 da f7 32 3f b7 1d 0c 3e 9f 3e 8d be 7c 79 f7 be
       0.6990944 0.1368321 -0.2758684 -0.48334873
0001f0 e2 22 3f 3d 88 4b 6d 3f df 14 0b 3f c2 78 c7 3f
       0.046664126 0.92693377 0.5432872 1.5583727
000200 b6 13 3f c0 31 fa 02 bf 1b b2 83 3f d0 e0 28 3f
       -2.985578 -0.5116301 1.0288728 0.65968037
000210 3d 00 bc 3f d8 b7 60 3f 82 40 79 3f 9f 74 cc be
       1.4687573 0.87780523 0.97364056 -0.39932725
000220 7c 4d ba 3e 22 ae 88 3f bb 8d c8 3e 27 15 7c bf
       0.3638724 1.0678141 0.39170632 -0.98469776
000230 89 75 66 bf 10 24 6d bf 0d 94 95 bf 44 70 c1 be
       -0.90023094 -0.9263315 -1.1685807 -0.37780964
000240 07 d3 36 c0 e7 8d 45 bf 90 ae 53 be 56 7d 1c bf
       -2.85663 -0.7716965 -0.20672059 -0.6112875
000250 55 50 8b 3f 52 e5 49 be c9 da 6b bf 15 38 bd 3f
       1.088389 -0.19716385 -0.92130715 1.478274
000260 df 44 21 bf 3d 1c c8 bd b3 80 e8 3f d0 f7 32 bf
       -0.62995714 -0.09771011 1.8164276 -0.6990938
000270 8e a6 75 3e 9f f5 fe bc b9 30 a6 3f 4d 7d db 3f
       0.23989317 -0.03112298 1.2983619 1.7147614
000280 fe 78 31 3f b1 ff 9e 3f 32 7f fb 3f 2c 32 2c 3f
       0.69325244 1.2421781 1.9648192 0.67264056
000290 c0 94 d7 bf 94 fa 5a 3e 8d c0 01 40 4a 3c e2 3f
       -1.684227 0.2138465 2.0273774 1.7674649
0002a0 c3 ef 74 bf 47 ee 55 3f b3 aa 94 3f 6b 54 97 bf
       -0.9567835 0.8356671 1.1614593 -1.1822637
0002b0 31 f1 65 be a6 bf ed bf 5f 36 bf be 65 49 63 bf
       -0.22455288 -1.8574111 -0.3734617 -0.88783866
0002c0 da 82 ac 3f 30 22 5f 3e 17 bf 82 3f 39 67 bd 3f
       1.3477433 0.21790385 1.0214566 1.4797126
0002d0 1d 6f 7d bd ca e8 d0 3f 31 0a 43 bf b0 2d 31 c0
       -0.061873544 1.6321042 -0.76187426 -2.7684135
0002e0 3b f1 e2 be 02 0c 53 3f 85 f3 93 be 9d ac 1f 3f
       -0.4432467 0.824402 -0.28896728 0.6237276
0002f0 47 1d bb be f1 23 49 3f 40 dd 99 3f 5b 6b c2 3f
       -0.36545774 0.7857047 1.2020645 1.5189012
000300 3c ad da bf 77 8d aa 3f d1 29 38 3e 79 e4 3a bf
       -1.7084117 1.3324422 0.17984702 -0.7300487
000310 7f 14 a8 bf c1 75 9a be 78 16 71 be 31 77 a7 3f
       -1.3131255 -0.30167964 -0.23543727 1.3083249
000320 e6 9c cb bf fc 0d 2a bd b1 d8 c1 3f 07 d3 eb be
       -1.5907257 -0.041517243 1.5144254 -0.4605944
000330 13 1d 52 3f f4 82 f2 be 91 fd 98 3e 13 8b cd be
       0.82075614 -0.47365534 0.29880956 -0.40145168
000340 3b 67 9f bf a4 0f c1 3e f3 b0 16 be 2f 74 39 bf
       -1.2453378 0.37707245 -0.14715938 -0.7244291
000350 ef 28 2d 3e 3d 93 ca 3e c9 3c 65 bf 3a 40 97 bf
       0.16910146 0.3956546 -0.89545876 -1.1816475
000360 4c 3d b5 3f a1 ae af bf a9 1c 6e bf dc 06 e8 3e
       1.4159331 -1.3725168 -0.9301248 0.45317733
000370 bb 5a 08 3f 32 3a 22 3d d6 ea 1e be b0 05 38 3f
       0.53263444 0.03960628 -0.1551927 0.7188368
000380 74 8d c9 3f 33 ae 05 bf a8 3e cd 3e 0b ca 5e be
       1.5746293 -0.5221893 0.40086865 -0.21756761
000390 1a f9 62 bf d7 e6 98 3f ad 1f 61 bf c5 95 80 3f
       -0.8866135 1.1945447 -0.8793896 1.0045706
0003a0 b3 e8 fc 3e d8 88 8b bf 2d 57 b1 bf 91 d6 91 be
       0.49396285 -1.0901136 -1.3854729 -0.28484014
0003b0 44 09 2e 3e c3 35 10 be 51 22 8f bf 4c 37 0c 3f
       0.16995722 -0.14083008 -1.1182348 0.54771876
0003c0 fa d2 3c 3f 88 c6 6e be 2c 93 6f bf 48 5c 88 bf
       0.73759425 -0.23317921 -0.9358394 -1.0653162
0003d0 6b db b1 3f 31 9d 97 3f 45 6e 67 3f c2 13 11 c0
       1.3895086 1.1844846 0.9040263 -2.266831
0003e0 ee 40 87 3e c1 69 7f bf 6b 0c ec bd a3 f3 7a 3f
       0.26416725 -0.9977074 -0.11525806 0.9802801
0003f0 97 b0 92 bf b6 b8 61 3e 50 cb 29 3f e6 e4 0f 3f
       -1.1460141 0.22043118 0.66325855 0.56208646

style_block.bias f4 [64]
000000 9f 1a 34 3e bd f5 f3 3d 2b d1 0e 3e 9c bd 52 3e
       0.1758828 0.11912105 0.13946979 0.20580143
000010 53 9e 77 3d df 1e 0d 3e e7 1e 31 3e ed 12 61 bd
       0.060453724 0.13781308 0.17296945 -0.05494969
000020 88 41 dc bd 47 cb be bb 43 07 2a 3e 29 a2 a3 bc
       -0.107546866 -0.0058225724 0.16604333 -0.019974785
000030 92 fe 0b bd 57 14 7f 3d a0 8d 41 bd 18 31 5a 3e
       -0.034178324 0.062275257 -0.047254205 0.2130779
000040 03 9a 56 3d f7 e2 36 bd 96 4c e8 3d 87 c5 f2 bc
       0.05239297 -0.044650044 0.113427326 -0.029635204
000050 16 8e 6d bd 73 62 fb 3d 2a 0c 7a 3d 0b cf 82 bd
       -0.05799683 0.12274637 0.061046757 -0.063871466
000060 a5 f1 c9 3d 42 c1 ba 3d 4f f3 0b 3e 72 49 0d be
       0.09860543 0.09118892 0.13667034 -0.13797548
000070 d2 c7 ab bd 9c 6b 00 3e ed ae 26 3e 87 94 6d 3d
       -0.08387722 0.1254105 0.16277666 0.058002975
000080 19 79 c5 bd 3e e9 ad 3d bf 33 94 3d ec 48 68 3d
       -0.09642238 0.08491753 0.07236432 0.05671017
000090 81 75 3c 3d 66 1b 1e 3d 9f 0b 09 3d ad 42 46 3d
       0.046010498 0.038600348 0.03345835 0.04840343
0000a0 91 c6 d6 bc 15 d6 84 3d e8 f2 06 3d 6e 1e 06 3e
       -0.02621773 0.064861454 0.032946497 0.13097546
0000b0 86 5a 0d 3d 78 1e 86 3d aa 09 f3 3d 84 2b 4f 3c
       0.034510158 0.0654878 0.11867078 0.012644652
0000c0 db bf ae 3d 11 d2 f1 3d d1 22 89 3d 2a 10 75 3d
       0.08532687 0.11807645 0.06696094 0.05982987
0000d0 1c 0c a9 bd b8 2f 50 3c a8 6d 98 3c 7e 4f d6 3c
       -0.08254263 0.01270669 0.018606976 0.026160952
0000e0 58 11 40 be c3 f1 8a 3d b7 33 d1 3d da 08 97 3d
       -0.18756616 0.06784394 0.10214942 0.07374735
0000f0 41 6f fd 3d fb 5e c3 bd ff 9a bf bd c4 04 a1 3d
       0.123747356 -0.095396005 -0.09355735 0.07862237

style_block.to_style.bias f4 [64]
000000 23 fd 5c 3f 39 39 8d 3f 49 cb 84 3f 23 7b 70 3f
       0.86323756 1.1033088 1.0374538 0.9393789
000010 5b 3d 57 3f 3a be 7c 3f 91 7d 8a 3f 14 d0 5d 3f
       0.84077996 0.9872776 1.081957 0.8664563
000020 03 b3 6d 3f 84 fb 88 3f 34 de 8f 3f 5c 9d 91 3f
       0.92851275 1.0701756 1.1239686 1.1376147
000030 6c 1f 85 3f 9d 05 84 3f 1a 64 78 3f d3 0d 78 3f
       1.0400214 1.0314213 0.9702774 0.96896094
000040 33 58 6a 3f 5b 97 91 3f 42 22 88 3f 35 45 83 3f
       0.9154083 1.1374315 1.0635455 1.0255495
000050 67 2b 82 3f e0 2b 79 3f ea 74 82 3f de a9 90 3f
       1.0169495 0.9733257 1.0191929 1.1301839
000060 ff d2 7d 3f 71 01 83 3f 2e 2b 83 3f 2d dc 8a 3f
       0.9915008 1.0234815 1.0247552 1.0848442
000070 08 a5 8d 3f be 2c 5a 3f 1f b8 6a 3f c6 d7 7b 3f
       1.1065989 0.8522452 0.91687196 0.9837612
000080 36 ec 7c 3f ad 54 55 3f 4e 99 88 3f 64 de 5c 3f
       0.9879793 0.8333233 1.0671785 0.8627684
000090 b0 1b 88 3f 52 d3 82 3f c9 b6 86 3f eb 5c 86 3f
       1.063345 1.022074 1.0524532 1.0497106
0000a0 2d b1 93 3f 59 9f 64 3f 2d f9 7c 3f 59 72 82 3f
       1.1538445 0.89305645 0.9881771 1.0191146
0000b0 dc ec 81 3f 62 75 80 3f 1b ed 7c 3f 0d d8 43 3f
       1.0150409 1.0035822 0.98799294 0.7650154
0000c0 e8 ba 8e 3f a8 59 6d 3f ea 24 96 3f 31 82 82 3f
       1.1150789 0.9271493 1.1730015 1.0195981
0000d0 53 83 7e 3f d1 c3 8d 3f 25 0e 6d 3f 70 ac 7e 3f
       0.99419135 1.1075383 0.9259971 0.9948187
0000e0 fd ed 72 3f ed 70 8d 3f 44 d4 79 3f bd 69 8c 3f
       0.9489439 1.1050087 0.97589517 1.0969769
0000f0 31 3a 7e 3f 2f c1 79 3f 84 c3 81 3f 25 49 6d 3f
       0.99307543 0.975604 1.0137792 0.92689735

style_block.to_style.weight.weight f4 [64, 128]
000000 fd bb e9 3f 24 f8 3f 3f 7a 7d 62 3e bc 15 e2 bf
       1.8260494 0.7498801 0.22118178 -1.7662883
000010 fb 57 b0 bf 90 37 03 3e 7b b9 6b 3f c1 a9 93 3f
       -1.377685 0.12814164 0.92079896 1.153618
000020 5d 5c 30 bd 30 0c 1a 3f f8 ac 55 be d0 48 71 bd
       -0.043056834 0.60174847 -0.20866764 -0.05890733
000030 8f ba 3e bf bb 5a 73 bf 36 a8 21 3f 17 d0 7e bd
       -0.74503416 -0.9506032 0.63147295 -0.06221017
000040 f9 e1 a0 bf 19 56 86 be 7c 97 83 3d 11 fd a5 3f
       -1.2568961 -0.26237562 0.06425378 1.2967855
000050 d1 00 96 be 54 7b b3 bf 43 a6 02 c0 1c 49 c1 3f
       -0.29297498 -1.4022012 -2.0413978 1.5100436
000060 15 74 aa be c9 cf 28 3f 95 ca 1f bf 5e 3e 0d c0
       -0.3329169 0.65942055 -0.6241849 -2.2069316
000070 d5 63 27 bf d6 85 46 bf 3b 1f a3 3f 6c 89 e6 3d
       -0.65386707 -0.7754797 1.2743906 0.1125668
000080 76 2c 84 bf 34 4e ed bf f0 2e 2e 3f d1 7b 73 bf
       -1.0326068 -1.8539491 0.6804037 -0.95110804
000090 e6 35 86 3f a5 fa 29 be ed 34 77 bd 86 65 3b be
       1.0485198 -0.1659952 -0.06035321 -0.18300447
0000a0 f3 65 1d bf 4c bc 09 3f db ef 52 3e 22 60 1e bf
       -0.6148369 0.53802943 0.2059931 -0.6186544
0000b0 be fa 0f 3f 73 25 44 3f cd 83 5d 3f d5 a5 ab 3e
       0.5624198 0.7661964 0.8652924 0.33524957
0000c0 4a a2 d5 3e 4b 64 0e 3f 79 1b 36 bf 99 84 35 40
       0.4172538 0.55621785 -0.7113567 2.836218
0000d0 e2 43 8d 3d 0b 8a de 3d c3 e2 8d 3f 8a 34 54 3f
       0.06897713 0.10866173 1.1084827 0.8289267
0000e0 aa 8b 3d bf 8f 53 a0 bd 1e ce 38 3f 74 28 c7 3f
       -0.74041235 -0.078284375 0.7218951 1.555922
0000f0 cc d9 26 3e 1d e7 81 3f e0 ee d5 3e 95 91 28 3d
       0.1629402 1.0148655 0.4178381 0.041154463
000100 19 ca 14 c0 aa ae e1 3e dc b1 a8 3e 8b b3 51 3f
       -2.324835 0.4407857 0.32948196 0.81914586
000110 0d 59 8a bf ad aa a0 3f 12 d6 a4 bf c7 d6 60 3f
       -1.0808426 1.2552086 -1.2877829 0.87827724
000120 e0 87 0a bf ca c2 61 3c ca a5 71 bf d5 f3 19 bf
       -0.5411358 0.0137793515 -0.943936 -0.60137683
000130 bf e6 b8 3f 29 96 85 3f 78 5a de bf ed 7d 26 bf
       1.4445418 1.043645 -1.7371359 -0.650359
000140 0f 52 9a 3f c6 2a 99 bd bc 97 2e bf 37 1b e4 be
       1.2056292 -0.074788615 -0.6820028 -0.44552013
000150 21 7d 0f bf 7a 0b 02 c0 6a 63 91 3b 03 29 ab bf
       -0.56050307 -2.0319505 0.0044369 -1.3371891
000160 d3 5f 21 bf 47 10 b1 3e f5 aa a7 be 9c 52 17 bf
       -0.6303684 0.3458273 -0.32747617 -0.59110427
000170 46 f3 a1 bf 2e 6f 56 bf fc e6 a6 bf 2d 93 28 40
       -1.2652366 -0.83763397 -1.3039241 2.633983
000180 67 aa 08 bf 92 5e 36 3d b2 4c 1d 40 9e ee 99 3f
       -0.53385013 0.044523783 2.457806 1.2025945
000190 3e ac 98 be 73 39 9d 3f ce a2 43 3f 6a 80 b8 3e
       -0.2981891 1.2283157 0.76420295 0.36035472
0001a0 b2 23 5d be 62 b6 23 bf 4b 57 ce 3f 33 df c1 bf
       -0.21595648 -0.6395017 1.612039 -1.514624
0001b0 89 60 fc bd cb 54 25 bf 4f af 96 bf 63 3e f8 3e
       -0.123231 -0.6458251 -1.177225 0.48485097
0001c0 f9 21 a7 3f dd 89 d4 bf b7 d3 f8 3e 68 f5 4f bf
       1.3057243 -1.6604573 0.48599026 -0.81233835
0001d0 61 cd 78 bf 5d cb 6d 3e 5b 05 97 bd 91 c9 04 bf
       -0.97188383 0.23222108 -0.07374068 -0.51870066
0001e0 9a 44 11 3f fb 72 85 be b6 97 61 be 57 11 47 3f
       0.567453 -0.26064286 -0.2203053 0.77760834
0001f0 96 06 58 be b9 4b 2a bf fa 6a d8 bf 25 15 84 be
       -0.21096262 -0.66521794 -1.6907647 -0.25797382
000200 62 d0 2e 3f fc cb 60 bf ed 2f c6 3f 12 ac 9f 3d
       0.68286717 -0.87811255 1.5483376 0.07796492
000210 d0 f6 9b be 9f 66 90 3f ad 6a db 3e 42 12 79 3e
       -0.3046174 1.1281317 0.42854825 0.24323371
000220 46 98 49 3e 79 12 39 3f 65 20 af 3e 89 13 b6 3e
       0.19686994 0.7229381 0.34204403 0.3556178
000230 c7 f9 3e 3e aa fc 11 be c0 5a 82 bf e2 05 38 3d
       0.1864997 -0.1425654 -1.0183945 0.044927485
000240 67 7b cc 3f fa 37 4a be 9a bf c9 3e 1b 2f 22 bf
       1.597516 -0.19747916 0.39403993 -0.6335313
000250 23 70 a8 be 3a 5c 61 bf df 96 f5 3e 61 76 6b bf
       -0.32898054 -0.8803135 0.47966668 -0.91977507
000260 2b 27 7d 3f 64 8c 47 3e af cd 78 bf 5e 72 df 3c
       0.9888789 0.19487149 -0.9718885 0.027276214
000270 88 b9 e2 be f6 ad 87 be 70 72 88 3f 25 ed 35 bf
       -0.44282174 -0.2649991 1.0659924 -0.7106498
000280 3b 2b 27 40 af 4b a9 3f 54 54 b7 3c 1f 19 8b 3d
       2.6120136 1.3226222 0.022379078 0.06791901
000290 c3 7d 1b 40 ec d1 e1 bd 0a 3c 0e be 2e be e3 3f
       2.429551 -0.110263675 -0.1389009 1.7792413
0002a0 97 87 42 bf 48 01 4d bf 8f 4c 74 bf 8c ef 10 bf
       -0.75988144 -0.8008008 -0.9542932 -0.5661552
0002b0 ca 2f ff be e6 d8 8a bf 67 f2 bf bf 2d bc ae 3e
       -0.49841148 -1.0847442 -1.499585 0.34127942
0002c0 44 1b 50 40 7f 22 21 40 43 81 3a 3f 5a a6 86 3f
       3.2516642 2.5177305 0.7285349 1.0519516
0002d0 fc 63 29 bf c5 63 78 be cf ea 27 3f ca 5e 18 bf
       -0.6616819 -0.24256809 0.65592664 -0.59519637
0002e0 59 88 a2 3f e5 5d 34 bf f4 37 aa 3e c6 3d 10 bf
       1.269786 -0.7045577 0.33245814 -0.5634426
0002f0 38 99 ce be 41 a4 2a 3f f9 27 08 bd e8 8e 08 bf
       -0.40351272 0.6665688 -0.033241246 -0.5334306
000300 a5 1b a0 be 59 80 90 bf 0a cd 88 be e9 c1 23 bf
       -0.3127109 -1.1289169 -0.26718932 -0.6396776
000310 52 7a 87 bf 7a 46 92 bf b6 09 87 3f 58 4c e9 be
       -1.0584204 -1.1427758 1.0549839 -0.45566058
000320 14 f2 37 bf 4d 4d f2 3e 8b 13 ad 3d 98 88 d2 3f
       -0.71853757 0.473246 0.08450993 1.6447935
000330 9e b7 8d 3d 75 5b 41 3f 11 f2 8c 3e 1d 90 ec 3e
       0.06919788 0.7553018 0.27528432 0.462037
000340 ed 79 39 3f 85 b4 11 bf 92 6e be be 87 b8 25 3e
       0.7245167 -0.56916076 -0.37193733 0.16183673
000350 c4 45 02 bf fc 01 72 bf 3d 69 de be 6a f3 c2 3e
       -0.50887704 -0.9453428 -0.43439665 0.38076335
000360 be cf 5d bf 13 b9 12 40 3e c7 aa 3d e0 c9 f1 3e
       -0.86645114 2.292546 0.08338784 0.4722433
000370 16 f6 82 be 67 b5 ed bf 04 e7 9b 3e 17 45 36 3f
       -0.25578374 -1.8570985 0.30449688 0.7119917
000380 62 5f 77 be 7a 9c 8d 3e 46 0d 0c bf eb 99 ba be
       -0.2415748 0.27658445 -0.54707754 -0.36445555
000390 6b 40 7b 3e db d3 0f 3f 72 86 aa be 90 22 eb 3f
       0.24536292 0.5618264 -0.333057 1.8369923
0003a0 b0 bb 37 be 21 88 e8 3f 67 84 b5 bd 97 5c de bd
       -0.17942691 1.8166543 -0.08863144 -0.10857504
0003b0 92 a9 33 40 44 2c 99 3f 1e 49 aa 3f 39 61 bf bf
       2.8072248 1.1966634 1.3303564 -1.4951545
0003c0 0f ac c5 be e4 04 6d 3d c8 36 39 3f eb 29 2f 3f
       -0.38607833 0.057865992 0.72349215 0.68423337
0003d0 c6 74 84 be 8a bc 06 bf ca 6a 9e 3f 33 53 05 3f
       -0.2587034 -0.5263144 1.237634 0.52080077
0003e0 c3 7e 32 bf ea 68 dc bf a1 1d 7b 3f 07 a8 0f 3f
       -0.69724673 -1.7219517 0.98092085 0.56115764
0003f0 4c e4 13 3e c1 10 71 bd dc 87 85 3e 9b 11 16 bf
       0.14442557 -0.05885387 0.26080215 -0.58620614

style_block.conv.weight.weight f4 [64, 64, 3, 3]
000000 30 24 5d bf 83 b5 b9 3f 3a cc f1 bf 84 cb 14 bd
       -0.8638334 1.4508518 -1.889045 -0.0363269
000010 dc 13 03 bf fc 02 db bf 64 9a d8 bf 32 c5 1e 3f
       -0.5120218 -1.7110286 -1.6922116 0.62019646
000020 c7 6e 9c bf 7f f1 95 bf 35 60 98 3f 33 aa 30 3f
       -1.2221307 -1.1714324 1.190436 0.69009703
000030 fa ea 42 3f 4b 04 87 3f 0b d0 71 bc 4a 53 c4 bf
       0.76139796 1.0548185 -0.014759074 -1.5337918
000040 64 d9 37 3d f1 09 75 3e 07 df 98 3e e5 6a 38 3f
       0.044885054 0.23929574 0.29857656 0.7203811
000050 15 9e 5d 3f 53 c4 7c 3f 5e 17 ab 3e 60 1d bb 3f
       0.8656934 0.98737067 0.33416265 1.461834
000060 cf 28 12 bf f9 e5 63 be 47 68 b7 3f 01 6a 96 3e
       -0.5709352 -0.22255696 1.4328698 0.2937775
000070 af 19 6b 3f c5 8d c1 3f 3f 5a f1 be ef 41 5d 3e
       0.91836065 1.512139 -0.47139165 0.21607183
000080 a6 af 98 be cd 63 1e be 11 74 70 3e 42 ff 15 c0
       -0.2982151 -0.15467758 0.23481776 -2.3437047
000090 76 59 98 3e 8b ee 95 3e 84 44 67 bf f2 80 e6 bd
       0.29755753 0.29283556 -0.9033892 -0.11255063
0000a0 86 01 48 3f 0c 52 a8 bf a5 dd 70 3f 19 1a 8c bf
       0.78127325 -1.3150039 0.940882 -1.0945464
0000b0 a3 9c a7 bf eb 58 a6 be f9 13 b4 3f ce 2b 27 be
       -1.3094677 -0.32489714 1.4068595 -0.16325304
0000c0 59 df e3 be 5d 59 f6 bf 46 45 b2 bf 5b c5 6c bf
       -0.44506338 -1.9246022 -1.392739 -0.9248864
0000d0 2b e8 f6 bf d0 5a cc 3e e0 ae 2f bf c3 91 a7 3f
       -1.9289602 0.39913034 -0.68626213 1.3091358
0000e0 ab 5c 2a bc a1 c7 b1 be 78 0f 3a 40 e9 d1 d8 be
       -0.01039807 -0.34722617 2.9071941 -0.4234765
0000f0 24 8a f8 bd e0 44 36 bf 96 b3 42 be 61 d1 1f be
       -0.12135723 -0.71198845 -0.19013819 -0.15607215
000100 a6 ce 2c 3f 9b e8 f4 be bb 55 5e be 6d d3 1b bf
       0.6750282 -0.47833714 -0.21712391 -0.60869485
000110 30 36 c2 bf 62 f3 94 3e fc ae 9f 3f 0a 6e 46 bf
       -1.5172787 0.29091936 1.2475276 -0.77511656
000120 f1 10 b5 3e 41 bb 23 bf fb 6e 8f 3d 22 af 03 bf
       0.35364488 -0.639576 0.0700359 -0.51439106
000130 b2 e4 45 bf 40 a3 9f be 34 73 64 bf 58 e5 73 3e
       -0.77302086 -0.31179237 -0.89238286 0.23817956
000140 a2 6b 0f bf 55 98 5a 3f 93 dc 4e bf 24 52 d4 3e
       -0.5602361 0.8538869 -0.8080532 0.41468918
000150 ae cf fc 3e 96 07 d9 3f 03 e0 a5 be 6a 2e 68 bf
       0.49377197 1.695544 -0.3239747 -0.9069582
000160 5d 37 1a 3e 9c ed f8 3d 1f 15 a5 3f a6 85 52 3f
       0.15060182 0.121546954 1.2897071 0.8223518
000170 e5 00 29 3f 75 81 25 bf df 8b 4b bf f4 d3 df 3e
       0.6601699 -0.6465066 -0.795103 0.43716395
000180 1e af 04 3f 4b 74 57 bf 64 cc c3 3e 47 2a c8 3f
       0.5182971 -0.84161824 0.38241875 1.5637902
000190 c7 3d 89 3e fa 49 d6 3c 86 73 2c bf 1e 3e 51 3f
       0.26804945 0.026158322 -0.67363775 0.8173541
0001a0 8e 51 1e 3f f2 1c 82 bf 78 d6 35 3f 69 0a aa 3f
       0.6184319 -1.0165083 0.7103038 1.3284427
0001b0 0c 52 98 bf 09 a1 9d 3f 1e 8c b2 3e 49 9f af 3d
       -1.1900039 1.2314769 0.34872526 0.08575303
0001c0 11 5b 83 bf d2 07 f0 3f 63 84 20 bf ff fd 67 3e
       -1.0262166 1.8752387 -0.62702006 0.22655486
0001d0 52 a5 50 bf 9f ca 7f bf fb 04 04 3e 92 69 42 bf
       -0.8150226 -0.9991855 0.12892525 -0.7594234
0001e0 5b 10 66 bf e9 37 45 bf eb 25 b0 3f ae 09 21 bf
       -0.89868706 -0.7703844 1.3761572 -0.62905395
0001f0 38 0d 55 3f aa 10 a3 bf f9 43 e8 bf 03 9c 3a bf
       0.83223295 -1.273946 -1.8145744 -0.72894305
000200 94 53 34 3d f9 5c d4 bf 06 1d 8d 3e df aa 2f be
       0.04402502 -1.6590873 0.27561206 -0.17155026
000210 a8 de 1a 3e c5 10 54 3f 1f 15 c6 be 7d 70 94 3e
       0.15123999 0.8283809 -0.3868799 0.28992072
000220 da 00 52 3f 2b e4 99 3e 30 d4 ab 3f 8d a7 57 3f
       0.8203255 0.3005689 1.342413 0.8424004
000230 bb 8f 55 3e 85 92 5e bf b4 15 e7 be 28 40 03 bd
       0.2085561 -0.8694232 -0.45133746 -0.032043606
000240 c9 ca 73 bf 2c b7 36 bf d9 bb 97 3f e5 d0 02 bf
       -0.952313 -0.7137325 1.1854202 -0.511
000250 d8 f1 24 bf 5f 3e 37 be f2 b6 52 bf 2a d3 4f bf
       -0.64431524 -0.17894886 -0.823104 -0.81181586
000260 10 28 35 3f ad 2b 18 be a2 0f 37 3e 73 06 c4 bf
       0.70764256 -0.14860411 0.17877057 -1.5314468
000270 31 c6 d9 be 15 f9 3e 3f 85 f9 dc 3f 31 44 1b 3f
       -0.4253402 0.7459882 1.7263647 0.60650927
000280 01 af bf 3f ad 90 6e be 6a fa 1e 3f a2 2d 9d bd
       1.4975282 -0.23297377 0.6210085 -0.076747194
000290 35 e8 3b bf c1 dc 2f bf 19 7b 07 bf 23 b5 fa 3f
       -0.73401195 -0.6869622 -0.5292221 1.9586529
0002a0 31 3a ce be aa 61 84 bf 6d 97 d1 3d 19 ed 58 be
       -0.40278772 -1.0342305 0.1023396 -0.21184196
0002b0 a1 ca a6 bf a4 07 34 bc aa ee fc bf 51 b2 5c 3e
       -1.3030587 -0.01098815 -1.9760334 0.21552397
0002c0 76 87 39 40 ec 6a cc 3f f5 9a 4a bf 7f 6f 06 bf
       2.8988929 1.597013 -0.79142696 -0.5251388
0002d0 ce 7d dc bf 64 9e e5 be 4e 7a 49 3f 70 b1 94 3e
       -1.7225893 -0.44847405 0.7870225 0.29041624
0002e0 08 31 cb 3f d2 06 b5 3e b6 20 c4 be 9c c1 b8 3f
       1.5874338 0.35356766 -0.38306206 1.4434085
0002f0 00 30 96 bf 31 da 64 bf be d5 34 40 9c 8b 88 bf
       -1.1733398 -0.89395434 2.8255458 -1.0667605
000300 48 08 c9 3f 53 c2 a9 3e 03 ce 68 bf e6 58 2c bf
       1.5705652 0.3315607 -0.9093935 -0.6732315
000310 68 2f 03 3f 5b 2c 17 3e 1c 31 a6 bf 6c fc 4a bc
       0.5124421 0.14763014 -1.2983737 -0.012389284
000320 94 d1 05 bf e1 7b ef be a2 d6 44 bf db 93 ab bd
       -0.52272916 -0.467742 -0.76890004 -0.083778106
000330 7c a4 61 3f 1f fa 2e 3f 31 21 b5 3e 7a b2 97 bf
       0.8814161 0.68350405 0.35376886 -1.1851342
000340 a0 9e db 3e 2f 05 b9 3f 74 22 e4 bf 16 84 2d 40
       0.4289446 1.4454707 -1.7823014 2.711187
000350 e1 b3 c3 3f 14 ba 3e 3f 99 63 8c 3f c2 96 4f bf
       1.528927 0.7450268 1.0967895 -0.81089413
000360 0e e5 3b bf 16 ca 02 3d 9f 35 cc bf 83 63 06 c0
       -0.73396385 0.031931005 -1.5953864 -2.0998237
000370 13 8d 96 3e 05 48 53 be 7b 80 01 bf 57 64 24 3f
       0.29404506 -0.20632942 -0.5058667 0.64215606
000380 db ea 11 bf 89 57 60 bf 54 35 0d c0 ed 43 e1 3e
       -0.56998986 -0.8763357 -2.20638 0.43997136
000390 60 cd b6 3e 4b d3 84 bd 6b 3e 58 bf ed 49 cd bf
       0.35703564 -0.064856134 -0.8447024 -1.6038185
0003a0 f5 cb a0 3f 3e 16 e5 be c2 ad 97 3e 31 a5 65 bf
       1.2562243 -0.44743532 0.29624754 -0.8970519
0003b0 48 8e c0 be 3c df e6 3f 2c 99 3d 3f 3f ea 58 3f
       -0.37608552 1.8036876 0.74061847 0.8473243
0003c0 cf 6d 8f 3f 4a 6a e3 3e 58 95 d1 3f 99 ee c6 bf
       1.1205386 0.4441703 1.6373701 -1.5541564
0003d0 5f c0 5e 3f 49 5b e5 3e 58 a3 83 bf 9f 11 72 bf
       0.87012285 0.44796208 -1.0284224 -0.9455814
0003e0 4d 4d 0f bf c1 7c 9e be a0 ec 73 3f e7 d6 97 3e
       -0.55977327 -0.30954555 0.95282936 0.29656145
0003f0 f5 7a 1f bf 2f 8f 98 be e1 98 14 3f 14 f7 e0 bd
       -0.6229699 -0.2979674 0.58045775 -0.109846264

to_rgb.to_style.bias f4 [64]
000000 97 b1 93 3f 96 c8 74 3f da 2e 86 3f be 90 89 3f
       1.1538571 0.9561857 1.0483048 1.0747297
000010 3c 78 67 3f 6a ba a3 3f fb 2a 9b 3f 9b 4a 68 3f
       0.9041784 1.2791264 1.2122492 0.9073884
000020 ed f5 63 3f c3 bb 53 3f 7a c7 88 3f 64 3e 71 3f
       0.8904713 0.82708377 1.0685875 0.94235826
000030 56 41 5d 3f 7e 08 5c 3f 91 c9 a5 3f 81 c3 83 3f
       0.8642782 0.8595046 1.2952138 1.0294038
000040 be a0 87 3f 5c 5d 63 3f 45 a9 90 3f 13 17 63 3f
       1.059593 0.8881433 1.1301657 0.88707083
000050 aa b2 84 3f f9 bd 91 3f 86 d6 8a 3f ef ec 8a 3f
       1.0367024 1.13861 1.0846717 1.0853556
000060 e3 c9 85 3f f3 1a 93 3f ea 00 90 3f 1e 59 6a 3f
       1.0452236 1.1492599 1.1250279 0.9154223
000070 6a 36 81 3f ee 49 77 3f 8b 45 90 3f fb 0f 8d 3f
       1.0094731 0.9659718 1.1271223 1.1020502
000080 c5 ef 65 3f a4 71 90 3f 20 7f 8f 3f de 6c 9c 3f
       0.89818984 1.128468 1.121067 1.2220724
000090 67 57 85 3f f7 04 6a 3f 79 f5 8e 3f eb 61 9f 3f
       1.0417298 0.91413826 1.1168662 1.2451757
0000a0 c4 83 42 3f 0b bc 63 3f c1 6b 86 3f f5 b9 89 3f
       0.7598231 0.88958806 1.0501634 1.0759875
0000b0 9c 04 92 3f 4d 7b 8d 3f 39 52 7f 3f b2 e8 7b 3f
       1.1407657 1.1053253 0.99734837 0.9840194
0000c0 40 e1 86 3f ba 32 86 3f 84 f5 8d 3f 5a a9 70 3f
       1.0537491 1.048423 1.109055 0.9400841
0000d0 28 2f 7c 3f df 12 95 3f 11 83 95 3f a0 b1 7e 3f
       0.98509455 1.1646384 1.1680623 0.99489784
0000e0 4c 23 5c 3f fc 12 63 3f 77 69 89 3f e2 b6 84 3f
       0.8599136 0.8870084 1.073531 1.0368311
0000f0 99 2c 94 3f 57 7f 80 3f 5b c7 67 3f 47 9b 91 3f
       1.157611 1.0038861 0.9053857 1.1375512

to_rgb.to_style.weight.weight f4 [64, 128]
000000 a1 70 ea 3f 24 03 ae 3f 05 95 4b be 85 8a 7d 3f
       1.8315622 1.3594708 -0.19881065 0.9903949
000010 0b d4 be 3f ac 38 8b 3f 29 8c 98 bf 04 88 8f be
       1.490846 1.087667 -1.1917773 -0.2803346
000020 55 b1 5b bf 7a fb 89 3f f4 08 e0 3f e6 b1 44 3f
       -0.8581746 1.077987 1.7502732 0.7683395
000030 40 a8 23 bf 5f 54 59 be 0a ed a9 bf 32 72 95 3f
       -0.63928604 -0.21223591 -1.3275464 1.1675475
000040 b0 1a 35 3d 76 68 38 3f dc 7e e3 3e 5e fd ef bf
       0.044214904 0.72034395 0.44432724 -1.8749197
000050 3c 18 09 bf 8a 6e a8 be 53 37 01 3d 30 55 41 3e
       -0.53552604 -0.32896835 0.031546902 0.18880153
000060 ab 38 85 3f 66 f2 0d 40 08 46 7b bf a7 fb 3a 3f
       1.0407919 2.2179198 -0.98153734 0.7304024
000070 70 82 0d 3e ce f6 a4 3d 4d 84 00 c0 e9 ca 9b 3f
       0.13819289 0.08054887 -2.008075 1.2171298
000080 8c 6a 59 be ac dc 61 bf a0 d9 21 3e 9d 6c a1 bf
       -0.2123205 -0.88227344 0.15805674 -1.2611271
000090 92 fb 5d bf 35 c7 38 3f 8e e5 ef 3a 23 8c 4c 3f
       -0.8671199 0.72178966 0.0018302666 0.7990133
0000a0 9d 05 cc 3d ef ad 9a 3f ca 15 81 3e ce 97 a2 bf
       0.09962008 1.208433 0.25211936 -1.2702577
0000b0 bd 8e 48 bd ae 1b f3 3e 3d 3c 75 3f c2 f0 03 3d
       -0.04896425 0.47482055 0.9579504 0.032212026
0000c0 88 a1 06 3f de c5 a5 3f f7 02 28 c0 f3 b8 af be
       0.5259023 1.2951009 -2.625181 -0.34320793
0000d0 3a 36 e5 3e 89 56 88 bd 70 1c d6 bf 6f 15 8d 3e
       0.44767934 -0.0665713 -1.6727428 0.27555415
0000e0 67 59 66 3e d3 a5 1c bf 5b 2f e3 3f 33 5b 7a 3f
       0.22495042 -0.6119053 1.7748827 0.9779541
0000f0 27 ac 72 bf c6 84 96 3e 4a bf 11 3e b0 bf 68 3e
       -0.94793934 0.29398173 0.14233127 0.22729373
000100 bf 14 8c 3f 18 f3 15 bf 36 59 82 3e d7 33 72 3f
       1.0943831 -0.58574057 0.25458688 0.9461035
000110 53 57 17 3f bd d9 65 3e 8b db 10 bf 86 5a 7b 3c
       0.5911762 0.22446342 -0.56584996 0.015341407
000120 18 ad 80 3e d0 4a 80 3e e8 c3 ac be d7 16 37 3f
       0.2513206 0.25057077 -0.33743215 0.71519226
000130 28 91 35 be 0f a4 6c 3f 8f db a7 bf 3b ed cf bf
       -0.17731154 0.92437834 -1.3113879 -1.6244272
000140 53 9d 9d bf ea 94 e3 bc 0f 7a c8 3e ab ae d6 be
       -1.2313637 -0.027780969 0.39155623 -0.41930136
000150 d1 ab 74 3f 2a 1d bb be 9a 97 6c 40 df 2d 53 3e
       0.9557467 -0.36545688 3.696753 0.20622967
000160 91 51 9c bd 32 45 e4 3f 25 8f dd 3e 51 a4 de 3e
       -0.07632745 1.7833617 0.43273273 0.43484738
000170 6d 60 7c bf bd dd 78 bf 08 04 ce bc 8b cd 5b bf
       -0.98584634 -0.97213346 -0.025148407 -0.8586051
000180 d0 92 92 be 56 08 84 be ff dc 8f 3f 8f 4f da 3d
       -0.28627634 -0.2578761 1.1239318 0.10659706
000190 0c 77 16 3f e6 01 0f bf dd 04 e4 3f ba ea 95 bc
       0.587754 -0.5586227 1.7813984 -0.018300403
0001a0 81 9a e0 3e 4d 59 09 40 56 29 2c 3f 99 8a 21 bf
       0.43867877 2.1460755 0.67250574 -0.6310211
0001b0 3f eb c8 3e d3 f3 23 bf fc 4e 8d bf 0e bb 0a 3f
       0.3924198 -0.6404392 -1.1039729 0.5419167
0001c0 7d 49 e8 bd 27 73 99 3f d0 da d9 bf bc eb 6e bf
       -0.11342142 1.1988267 -1.7019901 -0.9332845
0001d0 11 4f c5 3d 96 b8 bb 3f 74 38 c3 3f 5d e0 0a 3f
       0.09634221 1.4665706 1.5251603 0.542486
0001e0 2b fc 68 c0 df 6a 58 3f 5a cc 13 bf 1f 3a 1c bf
       -3.640391 0.8453807 -0.5773369 -0.61026186
0001f0 7c 90 8a 3f 66 a2 6b bf 10 06 88 3f 69 7f 96 bd
       1.0825343 -0.92044675 1.062685 -0.0734852
000200 28 a0 54 3f 14 b7 8a 3e e2 4b 03 3e 37 c3 5a bf
       0.8305688 0.27092803 0.12821916 -0.85454124
000210 46 43 d0 3e fd cb 54 3f ac 0b 2c 3f 4d 4c e2 be
       0.40676326 0.8312376 0.6720531 -0.44198838
000220 9f 63 f2 be 6c f1 e9 be 53 66 6e 3e b5 81 31 3e
       -0.4734163 -0.45692003 0.23281221 0.17334636
000230 8c 8f 9f 3f 19 4c cd bd 8c f8 ad 3e 26 7f ab 3d
       1.2465682 -0.1002428 0.3397869 0.08373861
000240 67 cc 3c bf 00 3d 7e be 5b ea f9 be 5c 20 61 3e
       -0.73749393 -0.24827957 -0.48811612 0.21985
000250 b8 78 b0 bd 7f c7 e3 3f 9d 0f ca 3d 7c db ba be
       -0.08616775 1.7795256 0.09866259 -0.36495578
000260 e1 70 fd bd 23 cb cb 3e 76 6d 14 bf 84 e8 24 bf
       -0.123750456 0.3980342 -0.57979524 -0.6441729
000270 6e 25 b4 bd d2 c0 db bf 22 ac 77 3f de 94 f2 3e
       -0.08796202 -1.7168219 0.9674703 0.47379202
000280 63 8f 24 3d c4 4f 81 be 9d ac 8e bf f1 70 69 bf
       0.040175807 -0.2525617 -1.1146427 -0.9118796
000290 a8 4f 35 bf e7 b2 51 bf cb 6e cc 3c 9d 98 97 3e
       -0.7082467 -0.8191361 0.024955174 0.29608622
0002a0 e5 41 86 3f de 93 d9 be 9b 3b b5 3f f7 26 b6 bf
       1.048886 -0.42495626 1.4158815 -1.4230641
0002b0 b2 a0 f7 bf bf d3 9e 3e 06 2c 9c bf 7d 8f c4 3f
       -1.9345915 0.31020924 -1.2200935 1.5356289
0002c0 bd 83 52 bb da 4c 1c be 44 87 11 bf bc fe 51 3f
       -0.003212198 -0.15263692 -0.56847024 0.8202932
0002d0 e4 ec 1e bf a2 1e 95 3f 5d ca 95 3f ea 0c 0b 3f
       -0.62080216 1.1649973 1.1702381 0.5431658
0002e0 0e 94 96 3e 1d b4 b9 3e 50 0f 1c 3f 23 ca 11 3e
       0.29409832 0.36270228 0.60960865 0.14237265
0002f0 cd 3f f5 3e 50 86 df 3f 16 04 1b bf 19 f5 84 bf
       0.4790024 1.7462864 -0.6055311 -1.0387298
000300 8f 50 77 3f b3 54 5b bf 19 08 07 bd 23 5b f0 3e
       0.966073 -0.85676116 -0.032966707 0.46944532
000310 1f 65 aa be 0e 01 7a 3f 9c 4e 93 bc 75 f5 ea bb
       -0.33280274 0.9765786 -0.01798182 -0.007170374
000320 ff d2 a8 bd d9 9a 66 3f 3c a6 d3 3d 25 9f bb 3e
       -0.08243369 0.9008003 0.10334441 0.36644855
000330 f2 37 60 3f ee ce aa bd 68 bc 65 3f b0 d2 5e be
       0.87585366 -0.0834025 0.8974061 -0.21760058
000340 7c 62 78 3e 2b 20 9f 3c 51 90 f5 3e 19 04 19 bc
       0.24256319 0.019424519 0.47961667 -0.009339356
000350 7c 12 0f bf 85 fe 05 3e 5e a8 26 be c5 87 1b be
       -0.5588758 0.13085373 -0.16275164 -0.1518851
000360 42 1d 9f 3e 09 ae c2 3d a1 a8 32 bf f9 64 d5 3e
       0.3107701 0.09505851 -0.6978856 0.416786
000370 c3 db df be 40 6d db 3d 0a be b5 3d 18 ae a3 3e
       -0.43722352 0.10714197 0.08874138 0.3196876
000380 9f e4 b5 3f 5c 4d 28 3e d2 06 dd 3d a7 aa a6 be
       1.4210395 0.1643576 0.107923165 -0.32552072
000390 9b 91 37 3f d3 c0 f8 bf 1f 60 54 bf 01 02 35 3f
       0.7170655 -1.9433845 -0.8295917 0.7070618
0003a0 c1 48 7e bf a5 66 28 bf 05 33 96 bd 9c 0b a5 3f
       -0.99329764 -0.65781623 -0.0733395 1.2894168
0003b0 08 b8 86 be 6a d1 cb 3e 71 53 8d bf a5 d1 f6 3e
       -0.2631228 0.39808208 -1.1041089 0.4820682
0003c0 f9 0f 2e 3e d5 98 7a 3e 6a df 93 bf 2b 4a 62 3e
       0.1699828 0.24472363 -1.1552556 0.22098605
0003d0 31 b3 ce be e8 da b0 be fd 95 8e bf 6c 02 fa 3e
       -0.40371087 -0.34542012 -1.1139523 0.48829973
0003e0 d0 27 5b be 7a c6 bd 3f 8c e6 18 bf 6e ef 99 be
       -0.21401906 1.4826195 -0.59726787 -0.30065483
0003f0 42 d1 09 bf e2 12 a3 bd 99 ca 6f 3e 9f f8 cf 3f
       -0.5383493 -0.07962586 0.23417129 1.6247748

to_rgb.conv.weight.weight f4 [1, 64, 1, 1]
000000 e9 49 35 c0 4e 1f 99 3e 0f 00 1d bf bf b0 6f be
       -2.832636 0.29906696 -0.61328214 -0.23407267
000010 e6 85 44 3e 80 7d 5b bf 45 f8 bf bf 98 3d 3a 3f
       0.19191703 -0.8573837 -1.4997641 0.72750235
000020 fe 64 f2 3f 05 e0 55 3d df 74 a6 bf 75 0f 0d 3f
       1.893707 0.052215595 -1.3004416 0.5510171
000030 1e 29 6b 3e df 3a d0 3e 96 d0 b8 3f db a5 15 bf
       0.22964904 0.40669915 1.4438655 -0.584562
000040 a8 e1 2d 3e 88 7a 38 bd ab 7a 00 bf 41 ab 6d 3e
       0.16980612 -0.04503873 -0.50187176 0.2320986
000050 ba 34 d8 3e bb 9c 3b bf 6c 14 04 bf b5 b2 97 3d
       0.42227727 -0.73286027 -0.5159366 0.074071325
000060 7d 24 a9 be 5f ce 11 c0 53 e2 6c bf 64 79 27 40
       -0.3303565 -2.278221 -0.92532843 2.616784
000070 79 cd 97 3f c6 d7 be bb 16 85 2a bf 75 3a cb bd
       1.185958 -0.005824062 -0.66609323 -0.09923259
000080 c1 b6 a9 3e 80 fb 3c bf ba a8 91 bf 05 14 95 bf
       0.33147243 -0.7382126 -1.1379616 -1.1646734
000090 a3 03 b6 bf 90 b0 7f 3f fa 0a 25 bf 7e 45 66 be
       -1.421986 0.9987879 -0.64469874 -0.22487447
0000a0 68 9c 78 3f 14 0e 53 3f b4 b0 b5 bd 9b 02 9d bf
       0.97113657 0.82443357 -0.08871594 -1.226642
0000b0 69 45 17 bf 26 05 b5 bf 92 11 fb be 37 7d 63 3f
       -0.59090286 -1.4142196 -0.49036843 0.8886294
0000c0 03 43 22 bf 29 38 08 c0 4f b1 bd bf fc d8 7f 3e
       -0.633835 -2.1284277 -1.4819735 0.24985117
0000d0 fb 25 ca 3f 6f 03 fb be 64 c3 88 be c0 b4 9a bd
       1.5792841 -0.49026057 -0.2671157 -0.075540066
0000e0 49 75 60 3e bd 6b a3 3a f9 cb 1d be 9e d9 83 bf
       0.2191974 0.0012468022 -0.1540984 -1.0300786
0000f0 8c 46 66 be 26 02 a7 3f 87 6e e8 3e db 8c 9e bf
       -0.22487849 1.3047531 0.45396826 -1.2386736

blocks.0.style_block1.bias f4 [32]
000000 ae ba 6b 3d 4f c3 28 3d 81 9f 8e 3d 31 f0 a7 3c
       0.05755108 0.041201886 0.06964017 0.020500274
000010 13 a0 d0 3d 59 bc fb 3b bf 5c cd 3c 9e 21 a7 3d
       0.10186782 0.007682365 0.025068639 0.08160709
000020 34 e7 4f 3c eb ed ee 3d d4 07 82 bd ed a1 ec 3c
       0.0126894 0.11666473 -0.06349149 0.028885806
000030 06 c9 12 3e a4 13 96 3d 2c b7 9d 3d 49 8c 9f bc
       0.14334497 0.07327965 0.07700953 -0.019476073
000040 65 34 4e 3d f9 71 3e bd 83 89 24 bd 20 25 ff 3d
       0.050342936 -0.04649541 -0.040170204 0.12458253
000050 d5 5a ad ba 8a 73 dd 3d 13 2f 8c 3b 2b f3 d0 3d
       -0.0013225923 0.10813053 0.0042780726 0.102026306
000060 18 9c 6a 3d fa 97 61 3d ff 61 d3 3c 83 11 ac 3d
       0.05727777 0.055076577 0.025803564 0.084017776
000070 55 98 72 bd ef 7e a4 3d 7f 1b 75 bc c8 38 1f 3d
       -0.059227306 0.08032023 -0.014960169 0.03887251

blocks.0.style_block1.to_style.bias f4 [64]
000000 be 9e 7f 3f 65 97 8c 3f 6e 1a 6b 3f 98 3a 96 3f
       0.99851596 1.0983702 0.91837204 1.1736631
000010 cf c0 83 3f 3d 16 81 3f e5 7b 87 3f 24 cb 71 3f
       1.0293216 1.0084912 1.0584685 0.94450593
000020 79 96 73 3f 66 91 81 3f 53 20 7c 3f 6a 33 7c 3f
       0.9515148 1.0122497 0.9848682 0.9851595
000030 11 87 7c 3f b1 0f 95 3f 59 40 6b 3f fa ef 91 3f
       0.98643595 1.1645414 0.9189506 1.140136
000040 2b 40 70 3f c8 f9 65 3f d2 51 83 3f c5 ab 6e 3f
       0.9384791 0.8983426 1.0259345 0.9323085
000050 99 42 64 3f 44 95 8a 3f d1 9e 7b 3f eb 0c 4f 3f
       0.8916412 1.0826802 0.9828921 0.80879086
000060 11 8d 8e 3f 8b e4 6b 3f d3 6d 6c 3f e1 b6 75 3f
       1.11368 0.92145604 0.9235508 0.95982176
000070 34 84 55 3f 94 52 85 3f cb 96 85 3f 31 16 7e 3f
       0.8340485 1.0415826 1.0436643 0.9925261
000080 13 5e 73 3f f1 c5 84 3f 2a 64 74 3f 0b cc 4c 3f
       0.9506542 1.0372907 0.9546534 0.79998845
000090 88 e5 62 3f 3f 57 85 3f 74 aa 69 3f e3 1a 6f 3f
       0.88631487 1.041725 0.91275716 0.934004
0000a0 81 44 7e 3f 9f 3a 7c 3f 37 8b 83 3f a9 68 86 3f
       0.9932328 0.9852695 1.027686 1.050069
0000b0 b6 4b 80 3f 71 85 8d 3f 4b fd 8c 3f fc f9 8a 3f
       1.0023105 1.1056348 1.1014799 1.0857539
0000c0 c8 07 6d 3f ff 68 78 3f 10 df 73 3f 40 a5 73 3f
       0.9259 0.9703521 0.9526224 0.95174026
0000d0 c6 30 7e 3f 29 46 81 3f be 75 73 3f da 4b 82 3f
       0.9929317 1.0099536 0.95101535 1.0179398
0000e0 b4 2a 62 3f 9d 70 81 3f 0d 2f 8e 3f 5b cf 8d 3f
       0.8834641 1.0112492 1.1108109 1.1078905
0000f0 3d ac 83 3f 0b 16 66 3f 2e d8 89 3f 57 2a 78 3f
       1.0286938 0.89877385 1.0769098 0.96939605

blocks.0.style_block1.to_style.weight.weight f4 [64, 128]
000000 34 c7 5d bb 5d 3d e3 bf 69 28 79 3f ff 56 d5 3c
       -0.0033840658 -1.7753102 0.97327286 0.02604246
000010 58 9e 15 bf de e9 e0 3e ef 1b 37 3d c8 29 42 3f
       -0.5844474 0.43928427 0.044704374 0.75845003
000020 cd 72 c8 3f 3c 1f 20 3f dd 0d 81 bf cd c8 e2 be
       1.5660034 0.6254766 -1.0082356 -0.44293824
000030 b7 fe fd 3c 57 09 fb be df 6a 25 40 1b a9 c4 bd
       0.031005247 -0.49030563 2.584648 -0.09602567
000040 33 5b 93 3d 4c 00 40 3f 5c dc bf 3e 4e 74 4e bf
       0.07195129 0.75000453 0.37472808 -0.80646217
000050 88 e0 89 bd c6 be d4 bf f4 38 af bf f8 f8 66 3f
       -0.06732279 -1.662072 -1.3689256 0.90223646
000060 d9 6d 65 3e 06 4f 88 3f c7 16 0e be 45 5f eb 3e
       0.22405185 1.0649116 -0.13875876 0.45971122
000070 5b c4 1d 3f bf 66 ca 3f bb ea e2 be 4b 5e df be
       0.6162774 1.5812606 -0.4431971 -0.43626627
000080 46 27 13 3f 9b fb 11 3f a9 22 0b 3e 07 d6 d3 3f
       0.574818 0.57024544 0.1358744 1.6549691
000090 9e cc a7 be 06 9b 8e bf 05 2a 0d bf 44 4a 0f 3e
       -0.32773298 -1.1141059 -0.5514224 0.13993174
0000a0 78 b0 26 bf 83 68 8c 3e be 49 06 3f 68 e9 0c c0
       -0.6511302 0.27423486 0.5245627 -2.201746
0000b0 f8 f7 55 3f 98 30 e1 bd d7 09 a2 3f 28 8b 8c 3f
       0.83581495 -0.10995597 1.2659253 1.0979967
0000c0 04 4a 77 3f a4 d3 15 bf 33 59 bf 3f 9b 99 91 bf
       0.96597314 -0.5852606 1.4949096 -1.1375002
0000d0 1f c3 4b be 68 a2 d5 3f 60 e8 40 bf 5b bc dc 3f
       -0.19898652 1.6690187 -0.75354576 1.7244982
0000e0 fd f4 17 bf 92 5a 5b 3f d9 f5 09 3f 19 ae 96 bf
       -0.593582 0.85685074 0.5389076 -1.177188
0000f0 cd ac 8e bd d6 b3 1a bf b5 6e 02 be 0d a0 dd 3e
       -0.06966553 -0.6043066 -0.12737544 0.43286172
000100 f1 5a 12 3f 22 55 f7 be 52 f5 b6 3d 8c ac cb be
       0.57170016 -0.4830714 0.0893351 -0.3978008
000110 57 b1 68 bd bf 07 b0 3f d9 c0 ba be 08 e0 0d 3f
       -0.05680975 1.3752364 -0.36475256 0.5541997
000120 38 fb 00 c0 65 97 20 3f 70 b5 24 3f 41 72 2f 3e
       -2.0153332 0.6273101 0.6433935 0.17133428
000130 33 0d 83 3f 6d e5 9e 3f fe 22 be bf 5f 92 e6 bd
       1.0238403 1.2413765 -1.4854429 -0.11258387
000140 c8 27 2d bf 22 58 60 3f aa 61 07 3f 97 4c e6 3e
       -0.67638826 0.8763448 0.528834 0.44980308
000150 53 7b fb 3d 94 4d 32 be 99 a4 01 40 79 be bd 3d
       0.122793816 -0.17412406 2.0256712 0.092648454
000160 b3 13 a8 3f 44 0f c8 3e 4f f8 c3 3e 00 50 26 3f
       1.3131012 0.39074147 0.38275382 0.6496582
000170 2a 5d ee 3f fb 2e ae bf 2b 4b 4b bf 7c 77 de 3e
       1.8622181 -1.3608087 -0.7941157 0.43450534
000180 9d 64 5d bf 51 35 92 3f 5b 96 6c bf f5 6b e6 3f
       -0.8648165 1.1422521 -0.92416924 1.8001696
000190 1b 6a c6 3e e0 1c b2 be de c2 3f c0 9a 1a a4 bf
       0.38752827 -0.34787655 -2.9962687 -1.2820618
0001a0 16 13 ba 3e d4 ad e6 be 53 31 0f bf d1 e4 19 3e
       0.36342686 -0.45054495 -0.5593464 0.15028693
0001b0 be 3e 7c 3e 4e 2b 32 3f 95 71 18 bf a7 79 47 3e
       0.24633309 0.6959733 -0.5954831 0.1948
0001c0 63 ec 12 3f 78 bf 87 bf 83 40 21 3f 27 2b f7 3e
       0.5739195 -1.0605307 0.6298906 0.4827511
0001d0 97 f7 b4 3f 7c 3b 49 3e 4f c1 5e be 4f 11 b2 be
       1.4138058 0.19651598 -0.21753429 -0.3477883
0001e0 be 84 04 40 af 57 72 bf 8c 82 ee 3d da 5f a6 3c
       2.070602 -0.94665045 0.116459936 0.020309377
0001f0 ad 87 ca be 9a c7 95 bf 3b f8 83 3f 15 20 dd 3e
       -0.39556637 -1.1701539 1.0310129 0.4318854
000200 5d f1 10 bf 16 91 cb bf 79 be 73 bf a9 ec 29 3f
       -0.5661829 -1.5903652 -0.95212513 0.6637674
000210 a1 42 f0 3e 2c f1 91 3e 0c c2 b6 bf 9a 8a a2 3e
       0.46925834 0.28504312 -1.4277968 0.3174637
000220 a5 c3 de be 28 fd 3e 3e 0a d0 fb 3e 8b 80 97 be
       -0.4350864 0.18651259 0.4918216 -0.29590258
000230 c2 38 94 3f 97 2a ef bf 63 9e 46 3f c8 de 36 3f
       1.1579821 -1.8684872 0.7758543 0.7143369
000240 40 ef 99 3e 62 14 9e be 5b e6 06 3f 78 2f 0f bf
       0.30065346 -0.30874926 0.52695245 -0.55931807
000250 60 6f 5e 3e b6 f5 16 bf ec 42 89 be 43 0c 56 3f
       0.21722174 -0.58968675 -0.2680887 0.8361246
000260 a0 ca 3a 3f 9e 13 9f 3c ac df 61 bf 5d f5 c1 3f
       0.7296543 0.019418534 -0.8823192 1.5153004
000270 70 c0 74 3f 50 7c dd 3f 3f 65 96 ba cf f0 d9 bd
       0.95606136 1.7303562 -0.0011474265 -0.10641634
000280 e2 3a a7 3f 6e dc 2f 40 ee 45 38 bf 16 f4 1e 3f
       1.3064845 2.747829 -0.71981704 0.62091196
000290 07 db 06 bf cf 88 0f 3f 62 ea 0d bf 1f 45 29 3f
       -0.5267796 0.5606813 -0.55435765 0.66121095
0002a0 7c 24 5e be 46 97 50 3e 0e 3f 8b bf e3 ec 81 bf
       -0.21693605 0.20370206 -1.0878618 -1.0150417
0002b0 b4 a0 31 3f 2e f9 15 40 a6 6e 07 bf 92 3a 56 bf
       0.6938584 2.3433337 -0.5290321 -0.8368312
0002c0 6a 64 d1 3e c7 ba a3 3e 5c 28 89 3e d5 48 0a 3f
       0.40896922 0.31978437 0.26788604 0.5401738
0002d0 8d 14 53 be 9f 0a bf bf 54 b8 d2 be 18 26 37 3f
       -0.20613308 -1.4925116 -0.41156256 0.715425
0002e0 fd 4e 96 3f 21 dd 4b bf 9f cd 8a bf 4a fb 2c 3f
       1.1742855 -0.7963429 -1.0844 0.67570937
0002f0 51 ad 87 3f ba 56 d5 3f bc 26 a3 3e 8b 50 4e bf
       1.0599767 1.6667092 0.3186549 -0.8059165
000300 58 da d2 3f ec a5 17 be b8 55 bb 3f e0 79 4f be
       1.6472883 -0.14809388 1.4635534 -0.20261335
000310 2c cc 7b 3e 10 66 39 bf 4e 33 70 3f 41 1e e6 3e
       0.24589604 -0.7242136 0.93828285 0.44944957
000320 5a d9 c0 bf 05 93 a5 3d ec 00 51 3f 23 9e 1d bf
       -1.506633 0.080846824 0.8164203 -0.6156942
000330 64 7c b0 3f 65 b1 99 be 67 1c 8c 3e 33 15 66 bf
       1.3787961 -0.30018154 0.2736542 -0.898761
000340 5f 66 4d 3f 6a 67 dc bc f5 4b 12 3e d2 6c 3c 3f
       0.8023433 -0.02690478 0.14286788 0.73603547
000350 cb 4e 08 c0 33 62 96 bf 22 7d 2f bf 90 7c d0 3d
       -2.1298091 -1.1748718 -0.6855031 0.101800084
000360 b4 1c db 3f 8a 97 b5 3e 4b 13 9e 3f 68 71 75 3f
       1.7118134 0.35467178 1.2349638 0.9587617
000370 8a 29 35 bf e1 c8 59 3e 0a 76 41 3e 9f aa 91 3e
       -0.7076651 0.21268035 0.18892685 0.28450486
000380 04 ac 81 bf 8b 23 84 bf 58 30 c1 3e ea 47 95 be
       -1.013062 -1.0323347 0.37732196 -0.2915643
000390 19 63 05 40 cc 4e f4 be 50 9a 02 bf c3 7f 56 3f
       2.0841734 -0.47716367 -0.5101671 0.837887
0003a0 00 cf bd 3f bb 83 a9 3e e3 19 9d bf 83 4d 83 3f
       1.4828796 0.33108315 -1.2273525 1.025803
0003b0 65 9f 00 c0 0c 42 81 3f 0f 69 1f 3f d0 9d 18 40
       -2.0097287 1.0098281 0.6226968 2.384632
0003c0 33 44 9d bf 7c 7b ef 3e 31 be 52 3f 65 b8 b4 3e
       -1.2286438 0.467739 0.8232146 0.35296932
0003d0 fa 19 91 bf 27 28 1b 3f 11 71 d7 3e 4b 4c 15 3f
       -1.1336052 0.6060814 0.4207845 0.5831954
0003e0 2e f6 96 bf bf de 8e 3f af fd 39 38 cc 36 c6 bf
       -1.1793878 1.1161727 4.43437e-05 -1.5485473
0003f0 57 be 3a 3f c9 7a 48 bf 5b fd 06 3e d8 7c 78 3e
       0.72946686 -0.78312355 0.13182585 0.24266374

blocks.0.style_block1.conv.weight.weight f4 [32, 64, 3, 3]
000000 74 82 1e 3f 2f 72 fb 3f ff f6 d5 be 4a 6e 4c bf
       0.61917806 1.9644221 -0.41790006 -0.7985579
000010 fa f8 cf 3e 12 56 89 3e d9 f6 9e 3f 8b d8 02 40
       0.40619642 0.2682348 1.2419082 2.0444667
000020 bb dd f5 be c9 f1 9d 3f f6 21 53 bf 79 5d ea bc
       -0.4802073 1.2339412 -0.82473695 -0.028609024
000030 96 31 80 3d 91 4b 8a 3f 1a a7 c1 bf 56 b2 3d 3f
       0.06259458 1.0804311 -1.512912 0.74100244
000040 96 25 48 bf 89 c7 a2 3d 7f a1 97 3f 15 dc 26 bf
       -0.7818235 0.079482146 1.184616 -0.6517957
000050 ed 38 69 3f 99 67 93 bf 33 ce 69 3f 94 36 19 3f
       0.91102487 -1.151599 0.9133026 0.59848905
000060 c3 ff 6a bf 2d cf 39 3f 8a 59 1e 3f 93 bb 0e 3f
       -0.9179651 0.7258175 0.61855376 0.55754966
000070 f6 d4 16 3f 1f bd c6 3f d7 4f 07 3f 6a f6 f6 be
       0.589187 1.5526465 0.528562 -0.48234874
000080 e3 b8 45 3f 75 3f 8c bf 87 c6 b8 3e b4 02 ec bf
       0.7723524 -1.0956866 0.36088964 -1.8438325
000090 32 2d c5 3d 4f 3c 91 bf 9c 32 99 be c5 5e 48 bf
       0.09627761 -1.134653 -0.29921424 -0.78269607
0000a0 ff 05 92 bf 34 dd 17 3f 64 5b 90 3f 82 cd 70 be
       -1.140808 0.59321904 1.127789 -0.23515895
0000b0 47 4a 80 bf 3f cb dc bd 5f ab 8b 3f a6 06 ef be
       -1.0022668 -0.107809536 1.0911673 -0.4668476
0000c0 27 7b 9b 3e 8a de a0 3b 13 a1 0f bf 07 f9 9e 3e
       0.30367395 0.004909341 -0.56105155 0.31049368
0000d0 81 02 c0 3f db 05 8e 3f 0e 93 db be 86 39 98 bf
       1.5000764 1.1095537 -0.4288563 -1.1892555
0000e0 03 f5 10 3e 4d 58 63 bf b8 66 ba 3f b0 fa ab 3e
       0.14155965 -0.8880661 1.4562597 0.33589697
0000f0 2d ee 27 bf 4f 49 3e be e6 1a 94 bf 22 a2 7f 3f
       -0.655978 -0.18582653 -1.1570709 0.9985677
000100 b8 a0 e4 bf d7 53 c0 be 08 f8 4a bf 5c b5 87 bd
       -1.7861547 -0.37563965 -0.79284716 -0.066263884
000110 55 ee e9 3f 22 9b 05 bf 08 ad d5 3f 98 00 04 c0
       1.8275858 -0.5218984 1.669343 -2.0625362
000120 90 b8 6f be 31 a9 01 3f f3 b7 8f 3d aa 68 f4 3e
       -0.23410249 0.5064879 0.070175074 0.47736102
000130 26 85 b0 3f a8 44 6f be 49 60 52 3f 5c 06 1c bf
       1.3790634 -0.23366034 0.8217817 -0.60947204
000140 b1 09 3d bf 75 55 96 bf 9b 7b ef be a1 bd ed bf
       -0.7384291 -1.174483 -0.4677399 -1.8573495
000150 c9 7b 7f 3e a9 af c1 bf 08 64 88 be 3d e7 44 bf
       0.24949564 -1.5131732 -0.26638818 -0.7691534
000160 de 63 47 bf 8e c2 c3 3d 99 3f 1d be 3d 7f 6d bf
       -0.7788676 0.09558593 -0.15356292 -0.92772275
000170 78 f2 f8 bf f4 1c df 3e f4 8e 07 3f c3 9f 64 3f
       -1.9448996 0.43576777 0.52952504 0.8930628
000180 d8 a2 1a 3f d8 35 2d c0 ee 9d 85 bf 46 24 18 bf
       0.6040473 -2.7064114 -1.0438821 -0.5943035
000190 8c 37 77 3e 2a a9 58 3f 17 09 82 bf 66 d4 78 3e
       0.24142283 0.84633124 -1.0159024 0.24299774
0001a0 92 1e c0 bd af 7c 29 3f 12 fe 58 3f be f6 fd bf
       -0.09380831 0.6620588 0.8476268 -1.9840925
0001b0 aa 28 72 be b2 13 ce bf 2b 3b 0c bf e4 5e 8f 3f
       -0.23648325 -1.609976 -0.54777783 1.1200833
0001c0 a1 7e 0c 40 95 8e 20 bf 1d ca 3a 3f 64 a0 29 3c
       2.1952288 -0.6271756 0.7296465 0.0103531815
0001d0 61 9a a9 bf 86 18 3d bf 10 06 9c 3d 85 0a 22 bf
       -1.3250238 -0.73865545 0.07618344 -0.632973
0001e0 63 74 dc bf 7e 0e b3 3d 14 94 1b 3e a6 e5 86 3f
       -1.7223018 0.087429985 0.15193206 1.0538833
0001f0 53 58 7e bf ea c0 8f bf bf 03 e7 3e 5b 45 f6 3e
       -0.9935352 -1.1230748 0.45120046 0.4809979
000200 e7 d0 08 3f cf 78 8f 3e b8 24 80 bf 19 38 20 3f
       0.5344376 0.28021857 -1.0011206 0.625856
000210 cb 86 8c bf 39 12 dd 3f 81 b6 4a bf 22 71 0a c0
       -1.0978636 1.7271186 -0.7918473 -2.163155
000220 04 3f 5a bf 4b 41 60 3f 0a 77 3a bf aa 76 ae 3d
       -0.85252404 0.8759963 -0.7283789 0.08518727
000230 68 83 03 be db 81 8b be c4 9f 09 c0 47 c8 ba bd
       -0.12843096 -0.2724751 -2.1503763 -0.09120231
000240 1d 52 91 3e fa 5d b2 3f ed c6 31 3f 12 85 aa 3f
       0.2838296 1.3934929 0.6944416 1.332186
000250 45 d3 21 bf 22 e3 e5 3f b1 50 04 be b2 1b 59 bf
       -0.63212997 1.795994 -0.12921406 -0.84807885
000260 a7 2a 44 3f 33 b5 0d 40 a7 ae 01 c0 d0 81 c8 3d
       0.7662758 2.2141845 -2.026285 0.09790385
000270 57 cd 50 3f 35 69 b5 bf a9 46 10 be 2c 27 cb bf
       0.81563324 -1.4172732 -0.14089455 -1.5871329
000280 cc f2 66 3f ee 53 a6 be 2c 9a d0 bf fa f9 f9 bf
       0.9021423 -0.32485908 -1.629705 -1.9529412
000290 c2 24 9f be 51 84 91 be 5d d5 c2 be 0d 5a 28 bf
       -0.3108273 -0.28421262 -0.38053408 -0.65762407
0002a0 52 94 25 bf dd 9b e4 bf 1b 46 cf 3f 1e a0 31 3f
       -0.64679444 -1.7860066 1.619327 0.69384944
0002b0 70 eb a3 3e 29 a3 8a be 61 79 99 3f af df 19 c0
       0.32015562 -0.27077606 1.1990167 -2.4042776
0002c0 c8 93 bd bf 12 4b a2 bf eb a7 fa bc 59 30 6f 3f
       -1.4810724 -1.267916 -0.030597648 0.9343315
0002d0 47 6a 32 bd 02 64 04 c0 30 ed 09 3e b5 0d be 3d
       -0.043558385 -2.068604 0.13469386 0.09279958
0002e0 78 11 c6 3f bc dc b7 be 28 70 86 bf 93 0a 94 bf
       1.5474081 -0.35910594 -1.0502977 -1.1565727
0002f0 a4 52 89 3f 6e 5c 00 3e 40 77 18 bd 9f cb 1e 3f
       1.0728345 0.12535259 -0.0372231 0.6202945
000300 0b 27 08 40 cb f8 29 3e 04 c4 ef 3f 42 9b c0 bf
       2.127383 0.16598813 1.8731694 -1.5047381
000310 e2 5c 0c bf e1 e4 b0 bf f0 9c 18 bf d2 6a 29 3f
       -0.5482923 -1.3819848 -0.5961447 0.6617862
000320 57 a8 32 3f 38 98 2a 3f 0d 9d 5a 3f 6d 68 d0 bf
       0.69788116 0.6663852 0.8539589 -1.6281868
000330 ee bc c1 3f e5 70 6c bf 5b ad 23 c0 77 ee 41 bf
       1.5135782 -0.92359763 -2.5574558 -0.75754493
000340 ea 5a 3c be 15 37 d1 3f 3e d3 ed 3e b7 0e a8 bf
       -0.18394056 1.6344935 0.46450227 -1.3129491
000350 53 dc b9 bf e4 ab dd bf 66 8c 63 3f 0b b4 5b 3f
       -1.4520363 -1.7318082 0.88886106 0.858216
000360 0d a4 d9 bf 33 9b a4 be 23 d9 1d 3f e3 ff aa 3f
       -1.7003189 -0.32149658 0.6165945 1.335934
000370 35 7a 23 3f 01 18 02 3f c8 94 5f bf a3 cf 9b 3f
       0.6385835 0.5081788 -0.873364 1.2172741
000380 42 39 92 3f 58 2a e6 be 66 64 a2 3c df 58 95 bf
       1.1423724 -0.4495418 0.019823264 -1.1667746
000390 8d 39 36 be d0 79 40 be 91 3a 3f 3e 90 a4 25 3f
       -0.17795391 -0.18796468 0.18674685 0.6470423
0003a0 82 6f fe be be 5a 4f bf 11 82 e6 bd 6c f7 76 be
       -0.4969445 -0.80997837 -0.11255277 -0.24117821
0003b0 96 62 9f 3f 19 b1 1a bf f6 b0 c7 3e a2 50 9d be
       1.2451961 -0.6042648 0.39002198 -0.3072558
0003c0 0c 8b d2 3e b7 9f f9 3e 8b 2f e6 3e 58 cd 6f bf
       0.4112171 0.48754665 0.44958147 -0.93672705
0003d0 75 70 83 3e 52 c3 43 3f 4b 7a b1 bf 6f c1 01 bf
       0.25671735 0.7646991 -1.3865446 -0.5068578
0003e0 24 f5 a8 bf cb e5 ac be 42 b7 dc 3f 23 4c 26 bf
       -1.3199811 -0.33769068 1.7243426 -0.64959925
0003f0 f2 72 c2 3d 2d 71 86 3c d6 a5 4f be fe 3c 15 c0
       0.0949458 0.016411388 -0.20278105 -2.3318477
