gradient-inversion-generative-image-prior/inversefed/genmodels/stylegan2_mnist/test_output/checkpoint/GAN_MAP_2000.pth (torch, 266767 bytes, 8 tensors)

net.0.bias f4 [128]
0	0x3b25719a	0.0025244714
1	0xba9748e0	-0.0011542104
2	0x3aebf566	0.0018002212
3	0xbabad9c6	-0.0014255575
4	0xba4ef8d8	-0.0007895357
5	0x3b0376ba	0.002005978
6	0x3aa7baa3	0.0012796711
7	0x3b0c31fa	0.0021392093
8	0xb9f0d731	-0.00045936697
9	0xbad9e1fb	-0.0016623134
10	0x3a93b56a	0.0011269276
11	0x3ae118f4	0.0017173574
12	0xbae80fd6	-0.0017704915
13	0xb85c890f	-5.2579733e-05
14	0x3accc45d	0.0015622486
15	0x3b5d9601	0.0033811333
16	0x3b187618	0.0023263749
17	0xb9497a07	-0.00019214312
18	0x3ad7775b	0.0016438769
19	0x37823389	1.5521206e-05
20	0xbb333440	-0.0027344376
21	0x3b16131b	0.0022899571
22	0x3ab0ece5	0.0013498334
23	0xb9f14886	-0.00046021136
24	0x3b031bdd	0.0020005621
25	0x3b0a3839	0.002109064
26	0xbb286a7a	-0.002569823
27	0xba49e304	-0.00077013695
28	0xbaef32ef	-0.0018249432
29	0xba7c1177	-0.00096156396
30	0x3aa3e090	0.0012502838
31	0x3a4d517a	0.00078322703
32	0x39448050	0.00018739817
33	0xbad964a2	-0.0016585777
34	0xb93bfa66	-0.0001792699
35	0xbae819a5	-0.0017707838
36	0x3a21eec6	0.00061772426
37	0xbac39355	-0.0014921228
38	0x3932cf16	0.00017052548
39	0x3ae0b4f2	0.001714377
40	0x3b214964	0.0024610395
41	0xb87a9966	-5.974751e-05
42	0x3ac469fb	0.0014985198
43	0x3a9d807a	0.0012016438
44	0x3abfdea4	0.0014638496
45	0xbb28c8d8	-0.0025754478
46	0xba6f639a	-0.0009131968
47	0xb8999a33	-7.32433e-05
48	0x3874ffd0	5.8412377e-05
49	0x3a41d923	0.00073947216
50	0xba2f6974	-0.0006691434
51	0x3b0105b0	0.0019687228
52	0xba4dfaa7	-0.00078574795
53	0x3a3752e4	0.00069932477
54	0xbadf9b1c	-0.0017059776
55	0x3a9b19f2	0.0011833294
56	0x399ba5bc	0.00029687386
57	0xba9099ab	-0.0011032125
58	0x3a91327b	0.0011077666
59	0x38877da9	6.460708e-05
60	0x3aab4705	0.001306743
61	0xb9e6b490	-0.00044003548
62	0x3ab3104c	0.0013661473
63	0xba6cf690	-0.0009039426
64	0x3b086724	0.002081343
65	0x3a853555	0.0010162989
66	0x3ace51b3	0.0015740901
67	0xba9f635c	-0.0012160349
68	0x3abfbdb1	0.0014628676
69	0x3ace74ba	0.001575134
70	0xb91c706a	-0.00014919197
71	0x3aa1f54c	0.0012356429
72	0xba6ed66f	-0.00091109326
73	0x3b2057f0	0.0024466477
74	0xba1381f4	-0.00056269695
75	0x3aa32139	0.0012445814
76	0xba592874	-0.0008283921
77	0xbae93beb	-0.0017794346
78	0xbac08b3d	-0.0014689934
79	0x3ad6d2f3	0.0016389772
80	0xba652716	-0.0008741481
81	0x3b08424e	0.0020791474
82	0x394521ec	0.00018800021
83	0x3ae18984	0.001720712
84	0x3ac73d64	0.0015200791
85	0xb8448056	-4.6849564e-05
86	0x39cad974	0.00038690458
87	0x3a9d0882	0.0011980685
88	0x3a1a5080	0.0005886629
89	0x3a3666d9	0.00069580745
90	0xba273e37	-0.0006379815
91	0xbacdc339	-0.001569844
92	0x3aa64f8f	0.0012688505
93	0x3a83d116	0.0010056819
94	0xba59ecee	-0.00083131983
95	0x3ad26033	0.0016050398
96	0xb9b9747d	-0.0003537274
97	0xb9dba019	-0.00041890217
98	0x3ac85e80	0.0015286952
99	0x3b1394db	0.0022519145
100	0xbaa3bca5	-0.0012492134
101	0x3b03a884	0.0020089457
102	0x3b538fbb	0.0032281715
103	0x3ac2459a	0.0014821768
104	0x39c8b802	0.0003828407
105	0xbabd4a35	-0.0014441671
106	0xbb0f5ef6	-0.002187667
107	0x3a0c99b9	0.00053634826
108	0x3b15c2d8	0.0022851732
109	0xba98bd6f	-0.0011653135
110	0x3a56ae15	0.00081893924
111	0x39f5f865	0.0004691511
112	0xbadaa3d6	-0.0016680907
113	0xbaaa1108	-0.0012975046
114	0x39e0954f	0.00042835853
115	0x3a0352f8	0.0005009617
116	0xb9d529da	-0.00040657708
117	0x3a9e8a03	0.0012095574
118	0x3a891f3e	0.0010461581
119	0x3ad90cdb	0.0016559617
120	0x3b776e59	0.0037754981
121	0x3aa3c8dd	0.0012495775
122	0x38dafb23	0.00010441828
123	0x3accbb2e	0.0015619749
124	0xbb1426e3	-0.0022606186
125	0xb95a36c6	-0.00020810505
126	0x3a4e984b	0.000788097
127	0x39906b6b	0.00027545853

net.0.weight.weight f4 [128, 128]
0	0xbf542c14	-0.8287976
1	0xbf1018d1	-0.56287867
2	0x3f1a21d1	0.6020785
3	0x3c986e0a	0.018607158
4	0x3f8f04ef	1.1173381
5	0xbfb1e7a6	-1.3898818
6	0xbd1702ae	-0.03686779
7	0x3f958b4e	1.1683137
8	0x3e6f470f	0.2336695
9	0x3ec62833	0.38702545
10	0xbe1d0196	-0.15332636
11	0x3eb4ff24	0.35350907
12	0x3fe6052c	1.7970328
13	0xbeeaec8b	-0.45883593
14	0x3f73743f	0.9509925
15	0x3fa1aef5	1.2631518
16	0xbe8c029b	-0.27345738
17	0x3ea14c89	0.31503704
18	0x3fd68edd	1.6762348
19	0x3f9d72e7	1.230069
20	0xbfbd204d	-1.4775482
21	0x3fc07fee	1.5039041
22	0xbe8d74d7	-0.27628204
23	0xbdc3e3c5	-0.09564928
24	0xbf14f9d2	-0.58193696
25	0xbfe409a6	-1.7815444
26	0xbf158c78	-0.58417463
27	0xbdc6f8b2	-0.097154036
28	0xc0003b97	-2.003637
29	0xbf2ef4ac	-0.6834209
30	0xbef57fc4	-0.4794904
31	0xbf5f89fb	-0.87319916
32	0xbeeaa989	-0.4583247
33	0xbfb5a812	-1.4191916
34	0xbf1f0067	-0.6210999
35	0x3d9d3afa	0.076772645
36	0xbe305a4e	-0.17221949
37	0xbe31d1cf	-0.17365192
38	0xbf7dbfd0	-0.9912081
39	0xbf09cc16	-0.53827035
40	0x3f61eded	0.8825367
41	0xbf2a1c23	-0.66449183
42	0x3e3c0267	0.18360291
43	0xbf98efc3	-1.194817
44	0xbe5d7186	-0.21625337
45	0x3e7ef463	0.24897914
46	0x3efb0ad0	0.49031687
47	0x3cb59d02	0.022169594
48	0xc013d855	-2.3100789
49	0xbedbd74e	-0.42937702
50	0x3f6709e5	0.9024947
51	0xbe0355a5	-0.1282564
52	0xbe65d677	-0.22445093
53	0x3f3dee9a	0.741922
54	0x3d1c42cf	0.03814965
55	0x3e5bb620	0.21456194
56	0xbd778fdf	-0.06043994
57	0x3f987dc6	1.1913383
58	0x3e95ba03	0.29243478
59	0x3e58944f	0.21150325
60	0xbf251a2d	-0.64493066
61	0x3e8a1452	0.26968628
62	0x3d019343	0.03163458
63	0xbe9f9d9e	-0.3117494
64	0x400732d1	2.1124766
65	0xbf8203ea	-1.0157444
66	0xbfa24392	-1.2676871
67	0x3d549def	0.05190843
68	0xbe5b57eb	-0.21420257
69	0xbf45c0e3	-0.77247447
70	0x3f88d4e7	1.0689973
71	0x3eb8201c	0.35961998
72	0x3eb80115	0.35938326
73	0x3f53b995	0.8270505
74	0xbff7b6e2	-1.9352686
75	0xbf9894d3	-1.1920418
76	0x3f32f718	0.69908285
77	0xc0074405	-2.1135266
78	0xbf862ff9	-1.048339
79	0x3d4c93ea	0.04994575
80	0xbefc08a3	-0.4922534
81	0x3f7ff4ea	0.99983084
82	0xbf5f3e05	-0.8720401
83	0xbfc88a99	-1.5667297
84	0xbf36a490	-0.7134485
85	0xc01ae4fd	-2.4202263
86	0xbf85dd69	-1.0458194
87	0xbe80ea47	-0.2517874
88	0xbe186e7f	-0.14885901
89	0xbfba51e8	-1.4556246
90	0x3ea0945b	0.31363186
91	0x3ee56863	0.44806203
92	0xbf759e23	-0.9594442
93	0x3ecaab29	0.3958371
94	0x3f67bea3	0.90525264
95	0x3f677a1f	0.90420717
96	0x3f6f2077	0.9340891
97	0xbf00ae6c	-0.50266147
98	0xbfa00a3a	-1.2503121
99	0x3e830a0d	0.25593606
100	0x3e9381d9	0.28810003
101	0xbe79065e	-0.24318835
102	0xbf94c281	-1.1621858
103	0xbe09bb5a	-0.13450375
104	0x3fe7ecb6	1.8119113
105	0xbf9c8b8f	-1.223009
106	0xbf4cb7ce	-0.79967964
107	0x400a465c	2.1605444
108	0x3f169dee	0.5883473
109	0x3fbf2ffb	1.4936517
110	0x3f6450cb	0.8918578
111	0x3f864187	1.0488747
112	0x3f8776ef	1.0583171
113	0x3ff45ca8	1.9090776
114	0x3f04d8a9	0.518931
115	0xbf61f1da	-0.8825966
116	0xc0306495	-2.756139
117	0xbfc56452	-1.542124
118	0xbf4eb00d	-0.8073738
119	0x3f890958	1.0705976
120	0x3fd92b96	1.6966426
121	0xbfc811ad	-1.5630394
122	0xbe8aab13	-0.27083644
123	0xbfa6b89e	-1.3025091
124	0xbf2d3764	-0.67662644
125	0x3f5e5551	0.8684893
126	0xbef16019	-0.4714363
127	0xbfb9a018	-1.4501982
128	0xbf099ab5	-0.5375169
129	0x3dcb78b9	0.099351354
130	0xbf8bba65	-1.0916258
131	0x3ecf3bd9	0.40475348
132	0x3e9ed0e4	0.31018746
133	0xbf7a789d	-0.9784029
134	0xbf4316a4	-0.7620642
135	0xbf85c9bf	-1.0452193
136	0xbd59bea1	-0.053160314
137	0x3e78e7b0	0.24307132
138	0x3f2d52b3	0.67704314
139	0x3ec55164	0.3853866
140	0xbf907c35	-1.1287905
141	0x3da9fdb1	0.08300341
142	0xbf151f7c	-0.58251166
143	0x3fa33bfc	1.2752681
144	0x3ee17cfa	0.44040662
145	0xbec6a99a	-0.3880127
146	0xbec2c54f	-0.3804116
147	0x3e99c46b	0.30032668
148	0x3ee8255c	0.45341003
149	0x3d5b66a6	0.05356469
150	0x3f7fc6a7	0.99912494
151	0x400c22b2	2.1896176
152	0xbf089090	-0.53345585
153	0xbf857573	-1.0426468
154	0x3e982000	0.29711914
155	0xbed638f1	-0.41840318
156	0x3e9d57e1	0.3073111
157	0x3e7c2783	0.24624448
158	0xbf629849	-0.8851362
159	0x3ee996cf	0.4562287
160	0x3f6fc96d	0.93666726
161	0xbf237144	-0.63844705
162	0xbf0a4b4a	-0.5402113
163	0x3f572b37	0.84050316
164	0xbf1c4b1d	-0.61052114
165	0xbdd0773e	-0.10178994
166	0xbdbcfec1	-0.09228278
167	0x3d9c13b5	0.07620946
168	0x401e8897	2.4770868
169	0x3ee3d298	0.44496608
170	0x401b2407	2.424074
171	0x3fcad754	1.5846963
172	0xbdb41190	-0.08792412
173	0x3e083c47	0.13304244
174	0x3f861681	1.0475618
175	0x3f6743de	0.9033793
176	0x3f9723fb	1.1807855
177	0xbea5c1a9	-0.32374313
178	0xbf3d2ba7	-0.73894733
179	0x3f5b55be	0.8567771
180	0x3efde5b7	0.4958932
181	0x3fae5066	1.3618286
182	0xbf1c13a2	-0.6096746
183	0x3ed98670	0.4248538
184	0xbe156745	-0.14590175
185	0xc017ca9c	-2.3717413
186	0x40405a81	3.005524
187	0xbd92b6d4	-0.07163778
188	0xbfc0ea55	-1.5071512
189	0x3eaf8683	0.34282312
190	0xbe60c984	-0.21951872
191	0x3ef00a0f	0.46882674
192	0xbf2f8b9d	-0.6857241
193	0xbea06956	-0.31330365
194	0x3f0a49d8	0.54018927
195	0x3f007a38	0.5018649
196	0x3f76128d	0.96122056
197	0x3e7bf741	0.24606039
198	0xbfa880df	-1.3164328
199	0x3f0efe9c	0.55857253
200	0x3ded1713	0.11576667
201	0x3e2a7a20	0.1664815
202	0x3ed92b52	0.42415863
203	0xbe9e7538	-0.30948806
204	0xbf4b32a9	-0.79374176
205	0x3e952ea5	0.2913715
206	0x3dcba301	0.099432
207	0xbec35f33	-0.3815857
208	0xbfe5fdde	-1.7968099
209	0xbf89fa2e	-1.0779474
210	0xbe9ca307	-0.3059313
211	0xbfa4299d	-1.2825199
212	0xbf31b1ce	-0.69411933
213	0x3f191780	0.59801483
214	0xbf235b21	-0.63810927
215	0x3f292203	0.6606752
216	0xbfa4447a	-1.2833397
217	0xbf0b1b29	-0.5433832
218	0xbe0c0eae	-0.13677475
219	0x3fe60fd9	1.7973586
220	0x3f41bb7a	0.7567669
221	0xbe00bcea	-0.12572065
222	0x3f2aad91	0.6667109
223	0x3ffe5b3a	1.987159
224	0x3ef336d5	0.4750277
225	0xc0071355	-2.110555
226	0xbfa2a692	-1.2707083
227	0xbfba41eb	-1.4551367
228	0xbe763e38	-0.24047172
229	0x3dcceaf2	0.1000575
230	0xbf238e05	-0.6388858
231	0x3eb79cdb	0.3586186
232	0xbe257289	-0.16156973
233	0x3e8a1f2a	0.269769
234	0xbf8bdd8e	-1.0926988
235	0xbf14bd1e	-0.5810107
236	0x3d923d68	0.071406186
237	0xbc7e43b6	-0.015519073
238	0x3f5950d6	0.8488897
239	0x3fa1742b	1.2613577
240	0xbf56be1a	-0.8388382
241	0xbf835772	-1.0261061
242	0x3f6d1120	0.92604256
243	0xbf7875f8	-0.97055006
244	0x3fec882b	1.8479055
245	0x3f9b99fa	1.2156365
246	0xc00b6144	-2.1778116
247	0xbf2d695a	-0.6773888
248	0xbf3abe3d	-0.7294653
249	0x3f030d5a	0.5119225
250	0xc030d540	-2.7630157
251	0xbef92eed	-0.48668614
252	0x3e8aacd9	0.27084997
253	0xc03a548d	-2.9114106
254	0x3e246a9c	0.16056293
255	0xbfa150c6	-1.2602775

net.2.bias f4 [128]
0	0x3914a21b	0.00014174769
1	0x39cab7e9	0.00038665466
2	0xb9a51305	-0.00031485423
3	0xba8f6058	-0.0010938747
4	0x399b87e9	0.00029665165
5	0x3abaca57	0.0014250976
6	0x3aa9e01b	0.0012960465
7	0x3aeb6771	0.0017959905
8	0x3b5afe70	0.0033415817
9	0x3998db68	0.0002915517
10	0xbae92307	-0.0017786928
11	0xb9c7f8ee	-0.00038141705
12	0x3b017cee	0.0019758302
13	0xbaaa41ed	-0.0012989618
14	0x3a5298d9	0.00080336403
15	0xb487c4b3	-2.5288827e-07
16	0x3b178762	0.0023121466
17	0x3b1db691	0.0024065117
18	0x3a58bf89	0.0008268287
19	0x3ae4841d	0.0017434392
20	0x3a67e9ac	0.00088467705
21	0x3acaf811	0.0015485307
22	0x3a9369ab	0.0011246701
23	0xbaab12fc	-0.0013051922
24	0xbb324278	-0.0027200263
25	0x3987a962	0.00025875407
26	0x3ae93de1	0.0017794931
27	0xba263aff	-0.00063411886
28	0x38ef344d	0.0001140615
29	0xbab1f770	-0.001357777
30	0xbad6e225	-0.0016394301
31	0xbb1a96b8	-0.002358837
32	0x3b295f00	0.0025843978
33	0x3aafe49f	0.0013419575
34	0x3afee4fa	0.0019446902
35	0x3a288134	0.0006427944
36	0xbab48eaf	-0.0013775433
37	0xbabd9148	-0.0014462853
38	0xba179c62	-0.0005783496
39	0xb7400793	-1.1445855e-05
40	0x3a0980b8	0.0005245316
41	0x3a8417c9	0.0010077889
42	0x3ac41e4e	0.0014962645
43	0xb9e0489e	-0.00042778713
44	0x3aedb50f	0.0018135625
45	0xbaa5601d	-0.0012617145
46	0xbb07b911	-0.0020709673
47	0x3a74cb25	0.0009338132
48	0x3ad8262d	0.001649087
49	0xb95589ba	-0.0002036457
50	0x3aee4ec9	0.0018181439
51	0x3ad53231	0.0016265569
52	0x3a452d52	0.0007521707
53	0x3a5ee391	0.0008502538
54	0xb91c956e	-0.00014932986
55	0x3a991f63	0.0011682328
56	0x3a2a7ac5	0.00065032794
57	0xbad36692	-0.0016128591
58	0xbaa367aa	-0.0012466807
59	0xba1b2377	-0.00059180654
60	0x3b231854	0.0024886327
61	0x3acdc421	0.001569871
62	0xbb1d4dea	-0.002400274
63	0x3767285a	1.3778068e-05
64	0xbaa94caa	-0.0012916524
65	0xba0f2cf2	-0.00054617145
66	0xb6bcdee4	-5.6287845e-06
67	0xb94b9202	-0.00019413981
68	0x39ee8bd4	0.00045499078
69	0xbb3416dd	-0.0027479448
70	0x3a99634f	0.001170257
71	0xb9a25ba1	-0.00030967317
72	0x3a6cf36f	0.000903896
73	0x3a773af7	0.00094310887
74	0x3aa71a78	0.0012748977
75	0xb8fffaaf	-0.00012206041
76	0x3ac6bb8c	0.0015162094
77	0xba05434a	-0.0005083574
78	0x3ad60eff	0.0016331373
79	0xba89c45b	-0.0010510789
80	0x3b5395ca	0.0032285326
81	0xbaab2421	-0.0013057032
82	0xba3e1b57	-0.0007251999
83	0xbaa1ddab	-0.0012349387
84	0x396a42d1	0.0002234087
85	0xba1601a4	-0.00057222904
86	0xba815295	-0.000986653
87	0x3a69a429	0.00089127064
88	0xb9a36436	-0.00031164446
89	0x3b490500	0.0030673146
90	0x3b201955	0.0024429162
91	0xbaf2a312	-0.0018511734
92	0x3b14f6c4	0.0022730092
93	0xb8ed3e25	-0.00011312616
94	0x3a468198	0.00075724116
95	0x38d01447	9.92199e-05
96	0x3ab5fa83	0.0013883862
97	0x3a8f0b05	0.0010913318
98	0xba8eade6	-0.0010885566
99	0x3a34e31a	0.0006900296
100	0x39ed34a6	0.0004524339
101	0x3a3843cd	0.0007029146
102	0x3a637bc2	0.0008677804
103	0x39666d74	0.00021975284
104	0x3a8332a6	0.0010009601
105	0x3a46ad06	0.0007578883
106	0x3a0416f3	0.000503882
107	0x3b04fe37	0.0020293125
108	0x3959fc0e	0.0002078863
109	0x39fc76a7	0.00048153588
110	0xb9a5bfdb	-0.00031614196
111	0x3b01972b	0.001977394
112	0xb9342c9a	-0.00017182753
113	0x3a6fee11	0.0009152601
114	0xba3cc6db	-0.00072012626
115	0xba0e567c	-0.00054297573
116	0xbaa63705	-0.0012681192
117	0x3a58430f	0.00082497386
118	0xbaf83bb2	-0.0018938689
119	0xb9ea68b3	-0.00044709965
120	0x3aabdb30	0.0013111588
121	0x3b14ad5f	0.0022686345
122	0x3ab64a5b	0.0013907658
123	0xbb81c51c	-0.003960265
124	0x3a8eb3ff	0.0010887383
125	0xba9f3aa8	-0.0012148218
126	0x3abbb35a	0.0014320419
127	0x391d75e6	0.00015016607

net.2.weight.weight f4 [128, 128]
0	0xc0200020	-2.5000076
1	0xbfeda77e	-1.856674
2	0x3e1569ea	0.14591184
3	0x3eced829	0.40399292
4	0xbf4b4433	-0.7940094
5	0xbf8d257d	-1.1027066
6	0xbef64f06	-0.48107165
7	0xbe938b2c	-0.28817117
8	0x3f51163e	0.81674564
9	0x3cdc761e	0.026911791
10	0xbf849e0b	-1.0360731
11	0x3ffd732b	1.9800771
12	0xbdf240c0	-0.11828756
13	0x3f87025e	1.0547597
14	0xbd9634a3	-0.073342584
15	0x3f0d1b4a	0.55119765
16	0xbdfef819	-0.124496646
17	0x3d082bc8	0.033244878
18	0xbf0b5ea6	-0.544413
19	0xbf53671d	-0.82579213
20	0x3f60f6a6	0.87876356
21	0xbfd6ee41	-1.6791459
22	0xbeb08258	-0.34474444
23	0x3e29e50e	0.16591284
24	0x3d414bba	0.04719136
25	0x3e104ee2	0.14092591
26	0x3e6b29d9	0.22965182
27	0x3f2fc85a	0.6866509
28	0xbf1f4a35	-0.62222606
29	0xbf4f24af	-0.8091535
30	0xbf00b3a4	-0.5027411
31	0xbd04f234	-0.032457545
32	0xbf705bf3	-0.93890303
33	0xbeabb19d	-0.33533946
34	0x3e07775c	0.13229126
35	0x3ff60526	1.9220321
36	0xbe7153f2	-0.23567179
37	0xbeb38f63	-0.35070333
38	0x3f9d05c1	1.2267381
39	0x3eb75c51	0.3581262
40	0x3e57e2e0	0.2108264
41	0x3fcc3796	1.5954463
42	0xbf4f5707	-0.8099217
43	0xbfc0dd58	-1.5067549
44	0xbfa2ae20	-1.2709389
45	0xbedbb30d	-0.42910042
46	0xbef6828d	-0.48146477
47	0xbf912b4d	-1.1341339
48	0x3e9d9ecf	0.30785224
49	0x3f6784ab	0.9043681
50	0xc003396d	-2.05038
51	0x3f5a120c	0.8518379
52	0xbf01e042	-0.50732815
53	0xbfb689db	-1.426082
54	0xbee55ee9	-0.44798973
55	0x3e9ac1ce	0.30225986
56	0x3e6e1bac	0.23252743
57	0xbecb49e2	-0.39704806
58	0xbe01c339	-0.12672128
59	0xbf4375d4	-0.76351666
60	0x3f64b292	0.89334977
61	0xbfc5c8a0	-1.5451851
62	0x40373e67	2.8631837
63	0x3ed3142c	0.41226327
64	0x3f24c349	0.6436048
65	0xbf2a4d46	-0.6652416
66	0x3f2c86fc	0.6739347
67	0xbd3d9aec	-0.046290323
68	0xbf86845b	-1.0509142
69	0xbd333df5	-0.04376026
70	0x3ef6c81b	0.48199543
71	0xbf77e7a8	-0.96837854
72	0x3f4beb8e	0.796563
73	0xbf02c45c	-0.5108087
74	0xbe40ad5e	-0.18816134
75	0x3ec65b15	0.38741365
76	0xbf5ea5df	-0.8697185
77	0xbee4d80c	-0.4469608
78	0xbf51c0e2	-0.8193494
79	0xc01ce3d3	-2.4514053
80	0xbf15133b	-0.5823247
81	0xbf80a090	-1.0049
82	0xbed747d3	-0.42046985
83	0xc0256a6b	-2.5846202
84	0xbf2bf9e0	-0.67178154
85	0x3f396668	0.72421885
86	0xbf3fec16	-0.74969614
87	0xbf32676d	-0.69689065
88	0xbec73cfa	-0.3891371
89	0x3f1b5341	0.6067391
90	0x3f1878f3	0.59559554
91	0x3ffd592b	1.9792837
92	0xbdf20318	-0.11816996
93	0xbf585189	-0.8449941
94	0x3f3aaf78	0.72923994
95	0x3f648a90	0.8927393
96	0x3ee335e7	0.44377062
97	0xc0112787	-2.2680376
98	0x3f9d57ef	1.229246
99	0xbfcf2465	-1.6182982
100	0x3f003ae2	0.5008985
101	0x3fdb1c6e	1.7118051
102	0x3f5c4445	0.8604167
103	0x4008fc84	2.1404123
104	0x3f8e30c2	1.110863
105	0xbfc2a52c	-1.5206656
106	0x3f529208	0.82254076
107	0x3e7c6364	0.2464729
108	0xbdda3c56	-0.106560394
109	0xbf766f7e	-0.96263874
110	0x3fbf6092	1.4951346
111	0xbf1821e0	-0.5942669
112	0x3f0bf317	0.546678
113	0xbf2798b6	-0.65467393
114	0xbf3163fb	-0.69293183
115	0xbfbd88a8	-1.4807329
116	0x3ecc47c7	0.39898512
117	0xbf3fdcb3	-0.74946135
118	0xbed5c9d8	-0.41755557
119	0xbdec0a58	-0.115254104
120	0x3f912827	1.1340379
121	0xbf56b187	-0.83864635
122	0xbf481703	-0.78160113
123	0xbef1b95b	-0.47211727
124	0xbeac8178	-0.33692527
125	0xbf89ed60	-1.0775566
126	0xbff5e272	-1.9209731
127	0xbfd8ff5c	-1.695293
128	0x3fd982ec	1.6993079
129	0xbf617114	-0.8806317
130	0xbe316645	-0.17324169
131	0xbf16cd40	-0.58906937
132	0xbff0833e	-1.8790052
133	0x3fbca582	1.4738009
134	0xbf3a2161	-0.7270718
135	0xbd523a37	-0.05132505
136	0x4067bac1	3.6207736
137	0xbeb3832f	-0.35061023
138	0x3ebbf0a0	0.3670702
139	0x3f8b6d29	1.0892688
140	0xbe047e0d	-0.1293871
141	0x3fb83164	1.4390073
142	0xbcd4606e	-0.025924888
143	0xbf8de801	-1.1086427
144	0x3f0893d8	0.5335059
145	0xbfab5c50	-1.3387547
146	0x3f23739e	0.6384829
147	0xc0081b40	-2.1266632
148	0xbff94aba	-1.947593
149	0x3fad1150	1.3520908
150	0x3fba6dc3	1.4564747
151	0xbe577925	-0.21042307
152	0x3e31cc55	0.17363103
153	0xbf7c60c0	-0.9858513
154	0x3ec614a6	0.38687629
155	0x3d8c03dd	0.06836674
156	0xbd92e8f5	-0.07173339
157	0x3e3d5e24	0.18492943
158	0x3ed87fe0	0.4228506
159	0xbf3d1176	-0.7385477
160	0x3fc655ec	1.5494971
161	0xbfc0c6ea	-1.5060704
162	0xbf810a5e	-1.0081289
163	0xbf3a237f	-0.7271041
164	0xbec19a3a	-0.37812978
165	0x3f4e352e	0.80549896
166	0x3e717151	0.23578383
167	0xbf155d3f	-0.5834541
168	0x3fa6e25e	1.3037832
169	0xbfe3c9f9	-1.7796012
170	0xbfa788f5	-1.3088671
171	0xbf991e09	-1.1962291
172	0xc0009f5d	-2.0097268
173	0x3e944c31	0.2896438
174	0xbfad0cc6	-1.3519523
175	0x3f1be872	0.6090156
176	0x3f259aa8	0.6468911
177	0xbf0e0f9d	-0.55492574
178	0x3f1acf17	0.60472244
179	0xbf3698bc	-0.71326804
180	0xbf9cf50e	-1.2262285
181	0xbf9e7fe7	-1.2382783
182	0xbecc8752	-0.3994699
183	0x3f08702f	0.5329618
184	0xbea2e790	-0.31817293
185	0x3f93f3d8	1.155879
186	0xbfae9c4d	-1.3641449
187	0x3eb8632e	0.36013168
188	0x3f24d2a7	0.6438393
189	0x3f7f6abd	0.99772245
190	0xbf4d7bef	-0.8026723
191	0x3f9d2948	1.2278223
192	0x3e2829b0	0.16422153
193	0xbf87bc2e	-1.0604303
194	0x3ef2c22b	0.47413763
195	0x3fd6bc1d	1.6776158
196	0x3f37aa46	0.7174419
197	0xbd8e9d1f	-0.06963562
198	0x3db5433a	0.08850713
199	0x3e4ef15e	0.20209262
200	0x3d58e8b1	0.052956287
201	0x3fc17199	1.5112792
202	0xbefed1c0	-0.49769402
203	0x3e31173a	0.17294016
204	0xbeee98c5	-0.4660093
205	0x3e339fbc	0.17541403
206	0xbea0be92	-0.31395394
207	0x3f66aba1	0.90105635
208	0x3fd6a018	1.6767607
209	0x3decd681	0.11564351
210	0x40060eef	2.0946615
211	0x3f90669e	1.1281316
212	0xbab4e1f7	-0.0013800253
213	0x3d9357ad	0.07194457
214	0x3fcd6bc6	1.6048515
215	0xbf340aac	-0.70328784
216	0xbfae9f22	-1.3642313
217	0x3faf69fd	1.370422
218	0xbf63ec9f	-0.8903293
219	0x3d99fdc9	0.07519109
220	0xbee3ec68	-0.445163
221	0xbf09a170	-0.5376196
222	0xbcd7dae0	-0.026349485
223	0xbfa55b71	-1.2918531
224	0xbe0ff798	-0.14059293
225	0xbe249a46	-0.16074476
226	0x400a3941	2.1597445
227	0xbfda8743	-1.7072529
228	0x3e90f650	0.28312922
229	0xbf247046	-0.64233816
230	0xbf0fae52	-0.56125367
231	0xbf0fa2b5	-0.56107646
232	0xbe51d3a7	-0.20490895
233	0x3eeac194	0.45850813
234	0x3e8102bc	0.251974
235	0xbe4e8d32	-0.20171049
236	0xbecac342	-0.39602095
237	0x3fd70331	1.6797849
238	0x3f704f55	0.9387105
239	0x3fd9a477	1.7003316
240	0xbfb0722c	-1.3784842
241	0x3ed16122	0.4089442
242	0xbf1b563c	-0.6067846
243	0xbfb60cd2	-1.4222662
244	0xbf490691	-0.78525645
245	0xbe402dbb	-0.18767445
246	0x3edacb40	0.42733192
247	0x3e0cfaeb	0.13767593
248	0x3eb18451	0.34671262
249	0x3eb816bc	0.35954845
250	0x3fb4fd1f	1.4139746
251	0xbf188bab	-0.59588116
252	0xbf9891ca	-1.1919491
253	0x3e4b4734	0.1985138
254	0xbf2745cc	-0.65340877
255	0x3f738349	0.951222

net.4.bias f4 [128]
0	0xbaa9b352	-0.0012947118
1	0xbaa9fb73	-0.0012968614
2	0x3ab0c3f1	0.001348613
3	0xba458cd7	-0.00075359404
4	0x3a8bc67c	0.0010664011
5	0x39d8ce83	0.00041352594
6	0xba5d730d	-0.0008447625
7	0x3a90697e	0.0011017767
8	0xba515126	-0.00079848093
9	0x3aacf000	0.0013194084
10	0x3adfc615	0.0017072583
11	0x3b07f384	0.0020744512
12	0x3a9c2649	0.0011913265
13	0x3acd9dd4	0.0015687295
14	0x3a972fd5	0.0011534641
15	0x3b5f1765	0.0034041044
16	0x39d37ab6	0.00040336483
17	0x39d718a2	0.00041026348
18	0xb8fa2229	-0.00011927292
19	0x3b444411	0.0029947797
20	0xb95c832c	-0.000210297
21	0xb9885afe	-0.00026007736
22	0xb9a6e6c0	-0.0003183391
23	0x3a5316ec	0.0008052427
24	0x3a7d8c68	0.0009672106
25	0x3a70ad9b	0.00091811427
26	0xbae9357d	-0.001779243
27	0xbab90001	-0.0014114381
28	0x3a98e6c5	0.0011665454
29	0xb99cd7da	-0.0002991546
30	0x399a4860	0.00029427093
31	0x398f2a8d	0.00027306788
32	0x3aec58ef	0.0018031875
33	0x399100df	0.00027657204
34	0x3a3097a8	0.0006736466
35	0x3a092110	0.0005231062
36	0xba4f5782	-0.0007909463
37	0x3aded068	0.0016999366
38	0xba8183c2	-0.0009881186
39	0x392f9a1b	0.0001674671
40	0x3b2a55d9	0.002599111
41	0xbb0a20d0	-0.0021076687
42	0xba899fd9	-0.0010499909
43	0x3ab95160	0.0014138632
44	0xba26728c	-0.0006349466
45	0x3b111dd5	0.0022143025
46	0xba46db3b	-0.00075857685
47	0xbae89439	-0.0017744369
48	0x3b83eaa6	0.004025775
49	0xbad66d75	-0.0016359525
50	0xba8fc673	-0.0010969177
51	0x398ebc2c	0.0002722455
52	0x3985578f	0.00025432973
53	0x39d25d4a	0.00040123827
54	0x3b166f0e	0.0022954377
55	0x3a98a975	0.0011647182
56	0x3ae7cc4e	0.0017684789
57	0xba71be13	-0.00092217437
58	0x38e62cca	0.00010975597
59	0x3a00e50e	0.00049169443
60	0xba8c6097	-0.0010709938
61	0x3a1d5935	0.00060023676
62	0x3a7402a0	0.00093082525
63	0x3a504092	0.0007944192
64	0xbaa3c4b7	-0.0012494539
65	0x3a096e86	0.00052426045
66	0xbade39a7	-0.0016954438
67	0x3a6e2354	0.0009084244
68	0x3a37a36f	0.00070052495
69	0xbab0ec85	-0.0013498223
70	0x3b07109b	0.0020609263
71	0x3ae9db4a	0.0017841842
72	0xba1fd2e0	-0.00060967915
73	0x3a8c93e2	0.0010725225
74	0x3a820466	0.0009919524
75	0xbb239f34	-0.0024966719
76	0x39065b2d	0.00012813201
77	0xb9d16f09	-0.00039946314
78	0x3b063cb4	0.002048296
79	0x3adc63ed	0.0016814448
80	0x3abb42e3	0.0014286902
81	0x3b2c5025	0.0026292887
82	0x39b4ece5	0.00034508776
83	0xbadfd950	-0.0017078314
84	0x3afd2a42	0.0019314962
85	0x3ac383a1	0.0014916548
86	0x3a17a98c	0.00057854573
87	0x39b7ca00	0.00035054982
88	0x3a37cca7	0.00070113916
89	0x3b12dc89	0.0022409281
90	0x3a1849f7	0.00058093615
91	0x3a38afdc	0.0007045248
92	0x3a98009f	0.0011596865
93	0xba70266f	-0.00091610005
94	0x3a0da167	0.0005402774
95	0xb98c0a99	-0.00026710777
96	0xba5ea38b	-0.0008492998
97	0xba1da47f	-0.00060135865
98	0x39e30b09	0.00043305036
99	0x350c1633	5.218637e-07
100	0x39418fe8	0.00018459524
101	0x39ebadec	0.00044952275
102	0x3b0f4ea5	0.0021866944
103	0xba831703	-0.0010001365
104	0xb9ae96f6	-0.0003330034
105	0xb9f02040	-0.00045800395
106	0x3a83a87a	0.0010044717
107	0x39792a27	0.00023762193
108	0xba84e8be	-0.0010140163
109	0x3a3af0dc	0.0007131228
110	0xba1412c2	-0.0005648547
111	0xbae13741	-0.0017182605
112	0xb9699a1f	-0.00022278026
113	0xbb22c8aa	-0.0024838843
114	0x3a9ad76e	0.0011813471
115	0x3b4f7c98	0.0031659957
116	0x3979e3fd	0.00023831423
117	0xba13012c	-0.00056077796
118	0x3a6f11d2	0.0009119782
119	0x3a81236b	0.0009852474
120	0x3ac57837	0.0015065734
121	0xbaa8beb4	-0.0012874217
122	0x3a8bff56	0.0010680954
123	0xbaa74ee6	-0.0012764602
124	0xbb1db9e1	-0.0024067091
125	0x3aafe526	0.0013419732
126	0xba077707	-0.0005167578
127	0x3a5d6e72	0.00084469386

net.4.weight.weight f4 [128, 128]
0	0x3f4c3166	0.79762876
1	0xbfbd2e76	-1.4779804
2	0x3f1dd01f	0.6164569
3	0xbf1f4c42	-0.62225735
4	0xbf5bbc3f	-0.85834116
5	0x3f6a264f	0.91464704
6	0x3fe08b4f	1.7542514
7	0xbe356f9c	-0.17718357
8	0xbe2aafee	-0.16668674
9	0xbfb4580b	-1.4089369
10	0x3e25d494	0.16194373
11	0xbd51e755	-0.051246006
12	0xbf6680a0	-0.90040016
13	0xbdd5ce23	-0.10439708
14	0xbf8babef	-1.0911845
15	0x3e7b2c4e	0.2452862
16	0x3f10dac1	0.5658379
17	0x3fa04ae8	1.252286
18	0xbf1419e6	-0.5785202
19	0xbf3c918d	-0.7365959
20	0x3e3a37d0	0.18185353
21	0xbf6ead98	-0.93233633
22	0x3ecf056a	0.40433818
23	0xbf875a2a	-1.0574391
24	0xbdb504b8	-0.08838791
25	0xbe1be3d0	-0.15223622
26	0xbc8fb3ef	-0.017541854
27	0xbf13a7c2	-0.57677853
28	0x3e1142c4	0.14185625
29	0x3f314591	0.69246775
30	0x3f86fab7	1.0545262
31	0x3dd4a2aa	0.10382588
32	0x3e1e2b58	0.15446222
33	0x3e780996	0.24222407
34	0x3ec88cf5	0.39170042
35	0x3e9e0c33	0.30868682
36	0xbfe01d62	-1.7508967
37	0x3f6d51a2	0.92702687
38	0xbfd39e2a	-1.6532643
39	0xbd922ed8	-0.07137841
40	0x40131361	2.2980578
41	0xbeda98e5	-0.42694774
42	0xbefb56b7	-0.49089596
43	0x40466c9d	3.1003792
44	0x3fb7c517	1.4357022
45	0xbce26e23	-0.027640408
46	0x3f26d408	0.65167284
47	0xbd02c74a	-0.031928338
48	0xbea384b0	-0.3193717
49	0xbe851655	-0.259936
50	0xbf9e4e57	-1.2367657
51	0x3fb5f27a	1.4214623
52	0xbfc12296	-1.508868
53	0xc007d767	-2.122522
54	0xbf26f95c	-0.6522424
55	0x3f2fa291	0.6860743
56	0x3f3876b8	0.7205615
57	0xbf10e722	-0.5660268
58	0x3f6bfd67	0.92183536
59	0xbfde36a5	-1.7360426
60	0x3f89a5f6	1.0753772
61	0xbf13f6f0	-0.5779867
62	0x3f15ddcb	0.58541554
63	0x3f7a59d3	0.9779331
64	0xc005c952	-2.0904126
65	0x3f368cc9	0.7130857
66	0xbeaf151c	-0.34195793
67	0x3fbf5c01	1.4949952
68	0xbfd15676	-1.6354511
69	0xbf6fa094	-0.936044
70	0xbf54a945	-0.83070785
71	0xbf11bcc2	-0.56928647
72	0x3dae9af4	0.08525649
73	0x3d32628f	0.043551024
74	0x3f752654	0.9576161
75	0xbf3a6b45	-0.7281993
76	0x3f651509	0.8948522
77	0xbf0176e7	-0.50572056
78	0x3f5dc883	0.8663408
79	0x3f64b38d	0.8933647
80	0xbf3288fb	-0.69740266
81	0xbf870c1a	-1.0550568
82	0x3fb0efc3	1.382317
83	0xbf545f85	-0.8295825
84	0xbf79c40b	-0.9756476
85	0xbe1e191b	-0.15439264
86	0xbf4d40b2	-0.8017684
87	0xbf4689cf	-0.7755403
88	0x4016b508	2.3547993
89	0xbf89ee94	-1.0775933
90	0x3f7cbe01	0.9872742
91	0x3eccd597	0.40006706
92	0xbf58cd02	-0.8468782
93	0xbe5d956f	-0.21639036
94	0x3fb118d0	1.3835697
95	0x3f80993f	1.0046767
96	0x3f5a45cc	0.8526275
97	0xbfd39d69	-1.6532413
98	0xbe777be2	-0.24168351
99	0xbeed1689	-0.46306255
100	0x3eb3690d	0.35041085
101	0xbe492fef	-0.19647191
102	0x3cce92f2	0.025216553
103	0x3e6d105e	0.23150775
104	0xbea15545	-0.31510368
105	0x3f2d0c45	0.67596847
106	0x3fe6affc	1.8022456
107	0xbf4d59b3	-0.80214995
108	0xbf3fb216	-0.7488111
109	0x3e15eb03	0.14640431
110	0xbf48e54f	-0.784749
111	0x4008c9bb	2.1373127
112	0x3eb8c47b	0.36087403
113	0xbf449f69	-0.7680574
114	0x3fc15cbd	1.5106426
115	0xc00adeb5	-2.169843
116	0xbf8b8f61	-1.0903131
117	0xbefdade2	-0.49546725
118	0xbdacd9df	-0.08439993
119	0x3d749484	0.059711948
120	0x3f9cbd60	1.2245293
121	0x3e1356e8	0.14388621
122	0xbfff37b8	-1.9938879
123	0x3e754694	0.23952705
124	0x3ee2f362	0.4432631
125	0xbebbbabb	-0.36665902
126	0x3ea3e41f	0.3200998
127	0xbf4a72e6	-0.7908157
128	0xbfad7644	-1.3551717
129	0xbfc9760f	-1.5739154
130	0xbe9d3580	-0.3070488
131	0x3fa26a3d	1.2688671
132	0xbe249137	-0.1607102
133	0xbf8500b0	-1.0390835
134	0x3f0a479a	0.54015505
135	0x3f01e4c0	0.5073967
136	0x3f39e049	0.72607857
137	0xbd54f245	-0.05198886
138	0x3eca2485	0.39480987
139	0xbf285946	-0.6576122
140	0xbec88ecb	-0.39171442
141	0x3e44637b	0.19178574
142	0xbbdfb144	-0.0068265516
143	0x3ea273ca	0.31728965
144	0xbe96fe3b	-0.29490837
145	0x3ebf6e94	0.37389052
146	0x3faf88c3	1.3713611
147	0xbe2dd70f	-0.1697657
148	0xbedb9a72	-0.4289127
149	0xbf1beb29	-0.609057
150	0xc008fdc8	-2.1404896
151	0xbe8e9ba5	-0.27853122
152	0x3f3140c4	0.6923945
153	0x3e22a9dd	0.1588511
154	0xbfbd84d6	-1.4806163
155	0x3f69d7fd	0.91345197
156	0x3d421e22	0.04739202
157	0x3f1a90f4	0.6037743
158	0xbf0dbe3a	-0.5536839
159	0x3e6689e9	0.22513546
160	0x40139403	2.305909
161	0x3f350519	0.70710903
162	0xbf6fb195	-0.93630344
163	0x3f1476c6	0.57993734
164	0x3ef8c16a	0.48585063
165	0xc029831c	-2.6486273
166	0xbf33c2d5	-0.70219165
167	0x3cfc9f15	0.030837575
168	0xbf232e0a	-0.63742125
169	0x3f6677a3	0.900263
170	0xc003c86f	-2.0591085
171	0x3f85ae8d	1.0443894
172	0xbe50c04e	-0.20385858
173	0x3e8f36ff	0.27971646
174	0x3e04877c	0.12942308
175	0xbfb42c5d	-1.4076039
176	0x3fba0d58	1.4535322
177	0x3e2940d1	0.16528632
178	0x4009bad9	2.1520293
179	0x3e73ac8a	0.23796287
180	0x3e8cf74d	0.27532426
181	0x3ef8db04	0.48604596
182	0xbe0018f7	-0.12509523
183	0xbf449389	-0.7678762
184	0xbd99729d	-0.07492564
185	0xbf8906cf	-1.0705203
186	0x3ed04a32	0.40681607
187	0x3c908e55	0.017645994
188	0xc004d09c	-2.0752325
189	0xbf5c1dda	-0.8598305
190	0xbf134c0c	-0.57537913
191	0x3f71204d	0.9418991
192	0x3f24700b	0.64233464
193	0x3f028b0c	0.5099342
194	0x3e9eece5	0.3104011
195	0x3ff1f688	1.890336
196	0x3f44b945	0.768452
197	0xbf479d20	-0.7797413
198	0xbf92ab19	-1.1458465
199	0xbd9dbfe6	-0.07702617
200	0x3fa8eeec	1.3197913
201	0xbfa50397	-1.289172
202	0x3f10300a	0.563233
203	0x3ef54326	0.47902793
204	0x3f52b1e1	0.8230267
205	0x3f475d88	0.7787709
206	0xbf8dc400	-1.107544
207	0xbe6c433a	-0.2307252
208	0x3fd27b91	1.644396
209	0x3f5c3054	0.8601124
210	0x3fbe4e27	1.48676
211	0x3dffd764	0.124922544
212	0x3f220c44	0.63299966
213	0xbf4ae6ab	-0.7925822
214	0x3e6dc6b2	0.23220327
215	0xbfcb1575	-1.5865923
216	0xbf08d1f0	-0.5344534
217	0x3f8bcf9b	1.0922731
218	0x3d7f0f0e	0.062270217
219	0x3f599a79	0.8500133
220	0x3ff6f9cd	1.9294983
221	0x3fb9f0dc	1.452663
222	0x3e7480bf	0.23877238
223	0x3e960d1f	0.29306886
224	0xbea70cdc	-0.32626998
225	0x3f399fd8	0.7250953
226	0x3fb1ce6f	1.3891124
227	0x3e2de239	0.16980828
228	0x3e1b147e	0.15144536
229	0xbfb357fe	-1.4011228
230	0xbdf3734b	-0.11887225
231	0x3e5b7b6d	0.21433802
232	0x3f2543a5	0.6455634
233	0x3ef562db	0.47926983
234	0xc00aad41	-2.1668246
235	0xbf355d3c	-0.7084539
236	0x3ec79af3	0.38985404
237	0x3f6d866f	0.92783254
238	0x3efebf95	0.4975554
239	0x3c09b099	0.008403921
240	0xbf602c7a	-0.87567866
241	0xbe04fb1c	-0.12986416
242	0xbdfde243	-0.123966716
243	0xbe5c9ba1	-0.21543743
244	0xbeef362a	-0.4672101
245	0xbee27dc3	-0.44236574
246	0x3e8cedad	0.27525082
247	0x3eff1dbb	0.4982737
248	0xbee2a0f5	-0.44263425
249	0xbf44722c	-0.7673671
250	0xbf4e5e66	-0.8061279
251	0x3f22b156	0.63551843
252	0xbeebc1dc	-0.4604634
253	0x3e5f847e	0.21827886
254	0xbf49f8a7	-0.7889504
255	0x3f06d142	0.5266305

net.6.bias f4 [128]
0	0x39fa223d	0.00047709225
1	0x3aac358e	0.0013138519
2	0x3a8e1a56	0.0010841589
3	0x39590428	0.00020696281
4	0x3997e05a	0.0002896812
5	0x3a81bd2c	0.0009898297
6	0xbad3faee	-0.0016172805
7	0xb9913e95	-0.00027703182
8	0x3a3f7d17	0.00073047116
9	0x3a6c66b4	0.00090179895
10	0x3b79ec64	0.0038135285
11	0x3adeed09	0.0017007898
12	0x3a113452	0.00055391074
13	0x3ae703f2	0.0017625077
14	0x3a6ffa55	0.0009154429
15	0x3b4155b8	0.0029500555
16	0x3a35b99c	0.000693226
17	0xbaf36e8d	-0.0018572375
18	0x39c00594	0.0003662525
19	0x3a2fe978	0.000671051
20	0x3a825631	0.00099439
21	0x3a4d264b	0.00078258355
22	0x3adc93ba	0.0016828694
23	0xba2a605d	-0.00064993446
24	0x3a694d15	0.0008899731
25	0xb99b11a7	-0.00029577056
26	0x3ababe44	0.0014247377
27	0x3a81b4fb	0.0009895855
28	0x3a8bd69f	0.001066882
29	0x3ac29ae2	0.0014847184
30	0x39a8e585	0.00032214462
31	0xb9028e34	-0.00012450741
32	0xba6e9f1a	-0.00091026875
33	0x3b392d36	0.0028255708
34	0xba4dd9be	-0.00078525755
35	0x3b1bcc13	0.002377276
36	0x3ac5246f	0.0015040765
37	0x3add9839	0.0016906328
38	0x3adf7be0	0.0017050467
39	0x3985b285	0.00025500744
40	0x39eff875	0.00045770747
41	0xbaac50f4	-0.0013146685
42	0x3a0cb926	0.00053681654
43	0xba639046	-0.0008680861
44	0x3a50bdfc	0.000796288
45	0x39cb93fd	0.00038829437
46	0x3b16c03f	0.0023002771
47	0x39cc636e	0.00038983993
48	0x3ad6feb4	0.0016402812
49	0x39e412b5	0.00043501487
50	0xba6e883c	-0.000909928
51	0x3adff1f2	0.0017085655
52	0x3a1c73da	0.0005968191
53	0xbaa996ac	-0.001293858
54	0x3983a957	0.00025112435
55	0xba55d9e6	-0.00081577746
56	0xba0298d2	-0.00049818784
57	0xba52aee8	-0.00080369273
58	0xb8220bd0	-3.863481e-05
59	0xb885d955	-6.3824154e-05
60	0x39063d70	0.00012802123
61	0xba7ac57f	-0.00095661724
62	0xbac36b2c	-0.0014909259
63	0x3a83df48	0.001006105
64	0x393beb25	0.00017921308
65	0x3a2ae173	0.000651858
66	0x39deb618	0.0004247881
67	0xbb184363	-0.0023233525
68	0x3a0793e1	0.0005171877
69	0x3a542804	0.0008093121
70	0x39b4a982	0.0003445857
71	0xba19cc6f	-0.000586695
72	0x3a861b3d	0.0010231506
73	0x3aaa65bc	0.001300029
74	0x394934e3	0.00019188556
75	0x3aa4ef36	0.0012583497
76	0xb9e67c0f	-0.0004396145
77	0xba124b9e	-0.0005580726
78	0xb907e499	-0.00012959763
79	0xb9ff93c1	-0.00048747475
80	0xbac2dcf3	-0.0014866873
81	0x38fff6c8	0.00012205314
82	0x3a4c6e15	0.0007798386
83	0xbb5ebbe4	-0.0033986503
84	0xb9ddd000	-0.00042307377
85	0x3a7b1ba2	0.0009579008
86	0x3ad3f684	0.001617149
87	0x3a82a508	0.0009967396
88	0xb61244cf	-2.1795747e-06
89	0xb79b7bc3	-1.8535071e-05
90	0xbb19943d	-0.0023434304
91	0x3b475491	0.0030415396
92	0x3aa177f2	0.0012319072
93	0x3885a245	6.372159e-05
94	0x3b0855a9	0.002080301
95	0x3aef8d83	0.0018276427
96	0x3a22adce	0.00062057085
97	0xba1ff91a	-0.00061024877
98	0x3a0cbdf3	0.0005368881
99	0x3ac14679	0.0014745734
100	0x3a23ae66	0.0006243944
101	0x3868abae	5.5473e-05
102	0x39317742	0.00016924462
103	0xba80e09f	-0.0009832567
104	0x3b7ece62	0.0038880338
105	0x3aa6ef85	0.0012736177
106	0x38b8a9c1	8.805423e-05
107	0x3b3e5722	0.0029043634
108	0xbb2c704c	-0.0026312051
109	0x36bdbf95	5.654942e-06
110	0x3ab852e3	0.0014062788
111	0x3a0b0a13	0.00053039304
112	0x3b6f55e1	0.0036519694
113	0x3abdbde8	0.0014476152
114	0xba34a57f	-0.0006891116
115	0xb9faa10f	-0.00047803714
116	0xba9a3f9f	-0.0011768228
117	0x3a76fbe6	0.0009421691
118	0x3911a47b	0.00013889551
119	0x3a9e3931	0.0012071488
120	0xba7061f5	-0.000916987
121	0x3b03618c	0.0020047156
122	0xba9d957d	-0.00120227
123	0xb9cce035	-0.0003907696
124	0x3a94092f	0.0011294241
125	0xb74bfd7e	-1.2158764e-05
126	0x3b0e0d6c	0.002167548
127	0xb94d57f2	-0.00019583086

net.6.weight.weight f4 [128, 128]
0	0x3d5e7efc	0.05432032
1	0xbdedb8ac	-0.11607489
2	0x3f724292	0.9463283
3	0xbf6e3b6a	-0.9305941
4	0xbe835933	-0.2565399
5	0xbe9a7c3f	-0.30172917
6	0x3c7dc666	0.015489196
7	0xbfbd3c2d	-1.4783989
8	0xbf557357	-0.8337912
9	0xbfbe484b	-1.4865812
10	0xbf5e079e	-0.8673037
11	0x3f4e0f4e	0.80492103
12	0xc03cb101	-2.9483035
13	0xbfacfbd2	-1.351435
14	0xbed11e08	-0.40843225
15	0xbe664c57	-0.22490059
16	0xbdecf668	-0.11570436
17	0xbf028c1f	-0.5099506
18	0xbf36220e	-0.71145713
19	0xbf5b1da8	-0.85592127
20	0xbf001d0e	-0.50044334
21	0xc00d4104	-2.2070932
22	0x3f609fa1	0.87743574
23	0xbe3f9198	-0.18707883
24	0xbfdd83aa	-1.7305806
25	0x3e937a78	0.28804374
26	0xbf217718	-0.6307235
27	0x3fb9897a	1.449508
28	0xbf8c61c7	-1.0967339
29	0x3f896dd2	1.073664
30	0xbe499f9a	-0.1968979
31	0x3fe532ad	1.790609
32	0x3ea08a33	0.31355438
33	0xbf85f37f	-1.0464934
34	0xbef646c3	-0.48100862
35	0x3f392df4	0.72335744
36	0xbf119234	-0.56863713
37	0x3cf48325	0.02984769
38	0xbf3861fb	-0.72024506
39	0x3f0d8c2d	0.55292016
40	0x3ff5a94f	1.9192294
41	0x3f451784	0.76989007
42	0xc00e0b74	-2.219449
43	0xbfdb0b23	-1.7112774
44	0x3ef988fe	0.4873733
45	0x40447ef0	3.0702477
46	0xbf25c7f6	-0.6475824
47	0x400e0d14	2.2195482
48	0x3e3afe00	0.18260956
49	0xbf7aac6d	-0.9791935
50	0x3fd66dab	1.6752218
51	0xbfa79b5e	-1.3094289
52	0xbf9ce8ca	-1.2258542
53	0x3fbd99fa	1.4812615
54	0x3f6f308d	0.9343346
55	0xbee34940	-0.44391823
56	0xbf20ab3e	-0.62761295
57	0x3fa393c4	1.277947
58	0x3f246345	0.64213973
59	0x3f4a5deb	0.7904956
60	0xbf75363b	-0.95785874
61	0xbd873eb0	-0.066037536
62	0xbfe275b8	-1.7692175
63	0x3f852aa8	1.0403643
64	0xbfcf30e8	-1.61868
65	0x3e69852a	0.22804704
66	0x3f709f8e	0.9399346
67	0x3ef4d0c7	0.47815534
68	0x3fc50203	1.5391239
69	0x3f6c63f6	0.9234003
70	0x3f4cbe21	0.79977614
71	0xbe21ba5d	-0.15793748
72	0x3d80097e	0.062518105
73	0x3f820d53	1.0160316
74	0x3fadfc22	1.359257
75	0xbfb1278b	-1.3840193
76	0xbf30f1f5	-0.691192
77	0xbfafa92c	-1.3723502
78	0xbf39e623	-0.72616786
79	0xbeca1a38	-0.39473128
80	0xbfde22a4	-1.7354321
81	0xbd1bb49a	-0.038014032
82	0x3e42df9c	0.19030613
83	0x3fb28073	1.394545
84	0x3ddacfeb	0.106841885
85	0xbebac19b	-0.36475834
86	0x3f68fcab	0.9101054
87	0xbea19f56	-0.31566876
88	0xbe0ef46b	-0.13960426
89	0xbf92489c	-1.1428409
90	0xbf0c672e	-0.5484494
91	0x3f22b5c9	0.6355863
92	0x3fa8ed89	1.319749
93	0x3fad75c2	1.3551562
94	0xbf044a34	-0.51675725
95	0x3f6a6b2a	0.9156977
96	0xbf815c14	-1.0106225
97	0xbe8691b4	-0.26283038
98	0xbe116edc	-0.14202446
99	0xbf8fb276	-1.1226337
100	0x3bbe7847	0.005812678
101	0xc0080647	-2.1253831
102	0x3e0b2e9b	0.13591997
103	0xbe049e61	-0.12951042
104	0xbf9be3c6	-1.2178886
105	0x3f152b60	0.5826931
106	0xbf8c8da7	-1.0980729
107	0xbf52f504	-0.82405114
108	0x3f84ccd4	1.0375009
109	0xbf990735	-1.1955324
110	0xbf006cd1	-0.5016604
111	0x3f61cf0b	0.8820655
112	0x3f37f7f6	0.71862733
113	0x3e08df4a	0.13366428
114	0xbf4c9637	-0.7991671
115	0x3f72d345	0.9485362
116	0xbf9cf03d	-1.2260815
117	0x3ed2e813	0.41192684
118	0xbef861d7	-0.48512146
119	0xbf4da721	-0.80333143
120	0x3e491dff	0.19640349
121	0x3f09579b	0.536493
122	0xbf569a16	-0.83828866
123	0xbf8df9eb	-1.1091894
124	0xbfdacdcc	-1.7094054
125	0xbe534577	-0.20631967
126	0xbe8342b0	-0.25636816
127	0xbea3c69f	-0.31987473
128	0x3fa8f9e2	1.3201258
129	0xbd2f66b4	-0.042822555
130	0xbf7e497e	-0.9933089
131	0xbf897509	-1.0738841
132	0xbfa3c50a	-1.2794507
133	0x408ce394	4.4027805
134	0x3f8f5262	1.1197016
135	0xbfee1dd7	-1.8602856
136	0x3ec2330f	0.3792958
137	0xc0089a4b	-2.1344173
138	0x3d8926ad	0.0669683
139	0xc003d98e	-2.0601535
140	0xbf47b95b	-0.78017205
141	0x3f15dd28	0.5854058
142	0xbba56801	-0.0050477986
143	0x3f9bfcb9	1.21865
144	0xbff2f5e3	-1.8981289
145	0xbda9bead	-0.08288322
146	0x3f15574e	0.5833634
147	0xbf67b725	-0.9051383
148	0x3f7defa1	0.9919377
149	0xbfbf1e4b	-1.493112
150	0xbf77b292	-0.9675685
151	0xbd91bb03	-0.07115748
152	0xbdc879bc	-0.09788844
153	0x3ef3571b	0.47527394
154	0xbfb56d09	-1.41739
155	0x3f606cec	0.876662
156	0x3f13b382	0.5769578
157	0xbf6edf3e	-0.9330939
158	0x3e380a56	0.17972693
159	0x3f6fb47f	0.9363479
160	0xbdd31201	-0.10306168
161	0x3ea61795	0.32439867
162	0xbfbc8b85	-1.4730078
163	0xbf91ddc3	-1.1395801
164	0xbeb3b0fe	-0.35095972
165	0xbe079ccc	-0.13243407
166	0xbddac544	-0.10682157
167	0x3e439792	0.19100788
168	0xbf297669	-0.66196305
169	0x3f46ab55	0.7760518
170	0xbf010ab8	-0.5040698
171	0x3f7d1182	0.9885484
172	0xbfc96057	-1.5732526
173	0xbeb7a368	-0.35866857
174	0xbefe0d1c	-0.49619377
175	0xbe9ae60f	-0.30253646
176	0xbeb7a6c7	-0.3586943
177	0x3dfe2442	0.124092594
178	0xbef2eb9f	-0.4744539
179	0x3ebb353c	0.36564052
180	0x3eb4e5ef	0.35331675
181	0x3f63770d	0.8885353
182	0xbf2d7512	-0.6775676
183	0x3fc6ea27	1.5540208
184	0x3f43cccb	0.76484364
185	0xbeaefc1c	-0.3417672
186	0x3c24d8b0	0.010061428
187	0x3f1c559b	0.61068124
188	0x3f6f1401	0.933899
189	0x3f9faf77	1.2475423
190	0xbf43e525	-0.7652152
191	0xbf76767c	-0.9627454
192	0xbdf95294	-0.12173954
193	0xbdce2d90	-0.10067284
194	0x3fca3ca1	1.5799752
195	0xbe64da7a	-0.22348967
196	0xbf23fc37	-0.64056724
197	0x3f215d1e	0.6303271
198	0x3eb64f2d	0.3560728
199	0x3ee3895e	0.4444074
200	0x3f862c24	1.0482221
201	0xbf15d5d7	-0.5852942
202	0xbee46bb3	-0.44613418
203	0xbf0a4398	-0.5400939
204	0x3c9c6b72	0.019094203
205	0xbf8327da	-1.0246537
206	0x3d20399e	0.039117448
207	0xbeff0dcf	-0.49815223
208	0x3ca152d7	0.019692821
209	0xbf47cbf8	-0.78045607
210	0xbe8828e5	-0.265937
211	0xbd1af1ec	-0.03782837
212	0xbe58ba8d	-0.21164913
213	0x3e505373	0.20344333
214	0x3e5b0611	0.21389033
215	0x3e4b8e93	0.19878606
216	0x3f5c4055	0.8603566
217	0xbd9b4e67	-0.075833134
218	0x3f3dda7d	0.7416151
219	0x3edecf5d	0.4351758
220	0x3f6cbf8a	0.92479765
221	0x3d3e53c3	0.0464666
222	0xbf7bfe19	-0.984346
223	0x3ea27e33	0.31736907
224	0xbee0174a	-0.43767768
225	0x3f5e5b06	0.8685764
226	0x3f0116ad	0.50425225
227	0x3f880b53	1.0628456
228	0x3cbff454	0.023431934
229	0x3f1cc6ea	0.6124102
230	0xbfba6f95	-1.4565302
231	0xbf91dbce	-1.1395204
232	0x3f6f7fac	0.93554187
233	0x3e245d31	0.16051175
234	0x40075bf2	2.114987
235	0xbfd7bd61	-1.6854669
236	0xbe93bdcc	-0.2885574
237	0xbeac3952	-0.33637482
238	0xbf748522	-0.95515645
239	0x3f9c3ffe	1.2207029
240	0xbf930152	-1.1484778
241	0x3f2e5e4b	0.6811263
242	0x3fca3c8d	1.5799729
243	0x3f480e4b	0.7814681
244	0x3f4e75c1	0.8064843
245	0xbed093f2	-0.40737873
246	0xbf6f84ff	-0.9356231
247	0xbdfd707e	-0.12374972
248	0xbf8232e8	-1.0171785
249	0xbfadca20	-1.3577309
250	0x3f31763a	0.69321024
251	0x3f527954	0.8221638
252	0x3f1ad3d0	0.6047945
253	0x3f224379	0.63384205
254	0xbf80b210	-1.005434
255	0x3e6fa20d	0.23401661
